weights/geneTCN.pt (torch_old, 214422 bytes, 63 tensors)

tcn.network.0.conv1.bias f4 [25]
00000000: 92b8 4fbc c0d1 8c3c 5a67 dabc 7dab c63c
00000010: e20a b23a 3b07 76bd c0dc 45bc dd77 99bb
00000020: 9332 3bbb 6c0e 023c 254b 043c 4608 523d
00000030: d261 813b 6ddf 1a3a 7755 2abc 30c7 483c
00000040: 9494 ce3c a11d dd3c 52a0 86bd dd2e 7dbc
00000050: 4ca5 6cba 0fa1 6ebc 7633 4fbd 6d26 efbb
00000060: 8e69 c93c
-0.012678282 0.01718986 -0.02666061 0.024251694 0.0013583566 -0.06006549 -0.012076557 -0.0046834783
-0.002856408 0.007938009 0.0080745565 0.05127742 0.0039484287 0.0005907927 -0.010396353 0.012254521
0.025217332 0.026991667 -0.065735474 -0.015453068 -0.00090273167 -0.014564767 -0.050586186 -0.007298282
0.024586465

tcn.network.0.conv1.weight_g f4 [25, 1, 1]
00000000: 03ba 3b3f ee23 303f 899f 333f ccff 3f3f
00000010: 7d23 2b3f ea5e 8b3f 33bd 493f 1bc8 283f
00000020: fd60 0c3f 90d4 1c3f dddc 2c3f 2e3d 3a3f
00000030: 1b92 283f ebaa 293f d1ff 9d3f e9e1 2b3f
00000040: 603f 713f 8505 613f 4ad8 8a3f 8cb2 2c3f
00000050: 6a26 2e3f cfac 0f3f 7d1b 523f f423 283f
00000060: 6b25 233f
0.73330706 0.68804824 0.70165306 0.7499969 0.66851026 1.088834 0.7880432 0.65930337
0.5483549 0.61261845 0.6752451 0.727496 0.6584794 0.66276425 1.2343694 0.67141587
0.9423733 0.8789905 1.0847256 0.6745994 0.68027365 0.5612306 0.82073194 0.6567986
0.6372897

tcn.network.0.conv1.weight_v f4 [25, 21, 8]
00000000: cb79 3881 2af4 1435 faed 411c 4f7c bc3a
00000010: d8c9 66ba bbb2 6907 d53d 9b3b 897f e1ba
00000020: 49d7 71bd 38d1 7ebd b53b dabd 82b1 d2b9
00000030: b418 8ebd eace d0bc 0e08 10be bdfa 20bd
00000040: 4451 36bc e322 0ebd 8b2a 08be c8f0 d6bb
00000050: 806c 91be c6d8 203d 4f15 77be be7b 82be
00000060: cc8b 053d f475 55bd ea6b dabd f0b8 acbc
00000070: e74b 1bbe 0c61 28bd 29ba 38be 14fb 37be
00000080: ee7f b0bd 74b2 81bd 465c d8bd e89b bbbd
00000090: f09d c5bd c851 9abd 8b48 10be b7ae 3dbe
000000a0: b6a7 5fbd 5728 48bd 9fbe 4a3c ebe8 1bbe
000000b0: b99c 12be 42e6 1b3d cd78 4bbe b7a3 4cbe
000000c0: 7bd5 4abd 9766 82bd a344 d1bd 666c 55bb
000000d0: d34a 1fbe 551e 2c3d 7c53 1bbe 684d fcbd
000000e0: 3085 62bd f8cc 94bd 0317 c3bd 33eb babb
000000f0: 6f4f 23bd b5e3 de3b 59fb 78bb 49fb a3be
00000100: 81a1 f4bc 7b31 e1bd c484 043b 1787 adbc
00000110: 5c8a b6bc 7227 89bd a600 8abd 4f6b 9a3b
00000120: 40a4 1dbd 5476 a9bd b573 7fbd f8bf d9bc
00000130: 3cc8 d9bc 4c09 04bd 8610 72be 9951 0fbe
00000140: fbb4 973a 1abc a3bc a055 b23a 4ef1 043d
00000150: cb50 e23d 1003 1fbe bfcc 7fbe d06e 223e
00000160: dded ccbd 2e06 8bbd b760 f8bd d79f 33bc
00000170: 5c9f 31be 4990 01bd 6ec5 e4bd b47c 2cbe
00000180: 420b 9f3d 649f ed3d a012 2d3e 01f9 b2bb
00000190: 0f68 1c3e f45f e53d 4209 663e b2cf 793e
000001a0: a7b1 78bc 07d1 55bd b1ff a3bd c8ba c7bd
000001b0: 95a4 26be 5e65 6dbe 42a5 a63d 0db3 70be
000001c0: e940 173e cb55 c83d 69df 033e d15c 8d3d
000001d0: ac41 e63d 474f 683d 856d 933e f5a6 6a3e
000001e0: 8e09 db3d c357 c23d 9793 073e dee1 6c3c
000001f0: c0ee 973d df90 a43d c270 3c3e fce3 2a3e
00000200: 046e c73d b578 f63d 5ac0 e83d 8cbb 933d
00000210: 1894 d63d 05a6 833d f5a3 8d3e a04b 093e
00000220: 6c99 ec3d 4b9b d73d cade 123e d15e de3c
00000230: 71c1 383e f4cc 4b3d 2656 363e 4d15 0a3e
00000240: 263f fa3d 16f9 283e 2a83 463e 26aa 4e3e
00000250: 95be 353e 0b33 0c3e f828 863e 5bef 6d3e
00000260: 13de 37bd a537 9fbd 704b adbd 5060 65bd
00000270: f50f 4d3b 8378 7ebe 981b c9bd 9f1f dcbd
00000280: 5ca3 ba3c b2db 4d3d b28b 913d 58dc afbc
00000290: 50eb b43c 7e80 9bbc d426 383c 1a35 ba3d
000002a0: f6ef 55b9 99a2 cb90 87b5 ad1f 0909 1eb2
000002b0: 1c19 482d 6acd 3226 9b7b b703 a737 6d35
000002c0: 4bd9 fe3b 013c afbc 6168 893c 5082 ca3b
000002d0: aae0 44bd c516 813b c939 98bd 4074 383d
000002e0: a272 6bbb cc33 8c3b a69f 873c c0f8 a839
000002f0: e97a eabc 1161 8e3d b267 a8be 1ac6 e73d
00000300: 4572 3dbb 1640 823c a634 c53c 3954 72bd
00000310: e3d6 84bd 6854 a23c 6a8b 613e 2c5e 373d
00000320: 34ba 193d e4d3 683c ce47 963d a03b 6abb
00000330: e950 88bd f8d8 41bc b2cd ef3e de58 983e
00000340: 21a7 dabc dd9e 11bd e506 8bbd 8d95 20bc
00000350: 2290 bbbd 069e 78bd 2f25 d53d 7ef4 91bd
00000360: 2c7e 053d d7ef b23c ca88 bfbc 6695 273c
00000370: 802b 823d 4639 b7bb 8fe8 c1be b218 713e
00000380: 4c94 303c 7508 b2bc 8ec7 a6bb 8032 b7bb
00000390: 3747 7b3c ffaa 8cbd 5b3d c1be 3f7c 93be
000003a0: b29f ccbc e0b2 03bc c516 2bbd 28c0 35bd
000003b0: 2785 5bbc 7aa3 583b 1123 5c3e 1d76 2a3e
000003c0: c1e0 69ba 9048 b33b a099 6abc 7b5c 85bd
000003d0: 6173 313c 05ab 32bd 8e40 b63e 3c1a a83e
000003e0: c78e 4f3c f47c 9a3b 43cc abbc bc55 cc3a
000003f0: 158e 9fbc 21bb 4cbd 3c6c 8f3c 554b 853e
-3.3882845e-38 5.54896e-07 6.416592e-22 0.0014380309 -0.0008803881 1.7581496e-34 0.0047375956 -0.0017204146
-0.059043203 -0.062211245 -0.106559195 -0.00040186575 -0.069383055 -0.02548929 -0.14065573 -0.039301623
-0.011127774 -0.03470124 -0.13297479 -0.006559465 -0.2840309 0.03926923 -0.24129222 -0.25485033
0.032604024 -0.052114442 -0.10665114 -0.021084279 -0.15165673 -0.041108176 -0.18039764 -0.17966872
-0.08618151 -0.06332865 -0.10564475 -0.09160596 -0.09649265 -0.0753513 -0.14090173 -0.1852368
-0.0546033 -0.048866596 0.012374549 -0.1522557 -0.14317597 0.038061388 -0.198703 -0.19984327
-0.049519997 -0.06367224 -0.102181695 -0.0032565831 -0.15555887 0.042021114 -0.15168566 -0.123194516
-0.0553028 -0.07265657 -0.095258735 -0.0057043075 -0.039870676 0.006802047 -0.0037991612 -0.32027653
-0.029862167 -0.10995766 0.0020220736 -0.02118258 -0.022282772 -0.06696977 -0.06738405 0.004712499
-0.03848672 -0.082745224 -0.062366206 -0.026580796 -0.026584737 -0.03223543 -0.23639116 -0.13995971
0.0011574322 -0.019987155 0.001360584 0.03245669 0.11050566 -0.15528512 -0.24980448 0.15862584
-0.10006306 -0.06788288 -0.12127822 -0.010963402 -0.17345947 -0.03163174 -0.11170469 -0.16844445
0.07765819 0.11602667 0.16901636 -0.0054618125 0.1527407 0.11199942 0.22464469 0.24395636
-0.015179074 -0.052201297 -0.08007754 -0.097524226 -0.1627372 -0.231832 0.08136989 -0.23505802
0.14770855 0.09781989 0.12878193 0.06902469 0.11242995 0.05671623 0.28794494 0.22915252
0.10695182 0.094893955 0.13239895 0.014458148 0.07418585 0.080354445 0.18402389 0.16688532
0.09737781 0.12034742 0.11364813 0.07213506 0.104774654 0.0642815 0.27664152 0.13407755
0.115527004 0.10527667 0.143428 0.027144821 0.18042542 0.049756005 0.178063 0.13484688
0.12219076 0.16501269 0.19385973 0.20182094 0.17748483 0.13691346 0.26203132 0.23235838
-0.04488952 -0.07774285 -0.08461654 -0.056000054 0.0031290029 -0.24850659 -0.09819716 -0.10748219
0.022782974 0.050258346 0.07106723 -0.021467373 0.022084862 -0.018982168 0.011239726 0.090921596
-0.00020402655 -8.0319903e-29 7.356866e-20 -9.198865e-09 1.1374259e-11 6.2034544e-16 1.0784152e-36 8.8370365e-07
0.007777368 -0.021390917 0.016773405 0.0061800852 -0.04806582 0.003939482 -0.07432897 0.04503274
-0.003592648 0.0042786356 0.016555618 0.0003222879 -0.028623061 0.06952108 -0.32891613 0.11317082
-0.0028907221 0.0158997 0.024072956 -0.059162352 -0.06486299 0.019815639 0.22025838 0.044767544
0.037531093 0.014210675 0.073379144 -0.0035741106 -0.066560574 -0.011831515 0.4683662 0.297553
-0.026691021 -0.035551894 -0.067884244 -0.009801281 -0.091583505 -0.060697578 0.10407483 -0.07126711
0.03259103 0.02184288 -0.023380656 0.01022849 0.06355953 -0.0055915443 -0.3787274 0.23544577
0.010777544 -0.021732548 -0.0050897067 -0.005590737 0.015336803 -0.068685524 -0.37742123 -0.2880573
-0.024978492 -0.008038253 -0.04176976 -0.044372708 -0.013398445 0.0033056424 0.21497752 0.16646619
-0.00089217356 0.0054712966 -0.014318854 -0.0651178 0.010830731 -0.04362013 0.35596126 0.32832515
0.012668318 0.0047146026 -0.020971423 0.0015589516 -0.01947693 -0.049983148 0.017507665 0.26034036

tcn.network.0.conv2.bias f4 [25]
00000000: 9a62 ad3c ca0f c6bb 7dd1 e9bc f5a4 cb3d
00000010: 1c80 0b3e 1c01 b83d 020b 33bd ab22 8d3b
00000020: 59fd d2bc 47d3 c03d 5f7c 34bb d77b e53b
00000030: 56b0 f53d 0eed 05bd 8ff4 cb3d c52a 503b
00000040: e219 97bb 78a4 463d 758f 1e3e f6c4 4abc
00000050: 0f0e 193c 9a66 d7bc fc1e d8bb d6bd 283d
00000060: 5c69 023e
0.021165181 -0.0060443627 -0.028542275 0.099435724 0.13623089 0.089845866 -0.04371167 0.0043071113
-0.025755571 0.09415298 -0.0027539951 0.0070032883 0.11996524 -0.032696776 0.09958755 0.0031763774
-0.00461124 0.048496693 0.15484412 -0.012376061 0.009341731 -0.026294041 -0.0065954905 0.041196667
0.12735504

tcn.network.0.conv2.weight_g f4 [25, 1, 1]
00000000: db51 723f 350a 8e3f 6d67 6a3e 2c9b ad3f
00000010: 2037 1c40 7864 f03f 0446 333f 4aec 5c3e
00000020: 3070 5a3e ba2a a33f b825 4c3f 9a75 6f3f
00000030: d1e4 993f cb67 543e 9129 9b3f 22c0 5c3f
00000040: 7a15 683e 2d3b b53f 6db4 953f 756b 503f
00000050: bdd2 423f baff 2f3f 58ad 633f 8722 a53f
00000060: e897 853f
0.9465615 1.1096865 0.22891016 1.356298 2.4408646 1.8780661 0.7002871 0.21574512
0.21331859 1.2747414 0.79745054 0.9353882 1.2022954 0.20742719 1.212206 0.8623067
0.22664443 1.4158684 1.1695687 0.81413966 0.7610281 0.6874958 0.88936377 1.2901162
1.0436983

tcn.network.0.conv2.weight_v f4 [25, 25, 8]
00000000: 68af b23c dc65 983d fcef cdbc 09a2 0bba
00000010: b573 0d3b e037 12bd b791 a6bd 59ce 6fbd
00000020: 4b18 efbd 98f2 d7bd 6048 93bd 3ab4 95bd
00000030: e574 55be 198b 13be fb33 69be ee52 85be
00000040: 9356 7b3a a202 b5bb 1766 48bc b01e 65bd
00000050: 0f49 8bbc b7ba f3bc 6056 5f3d a359 02bd
00000060: a3f2 63bd 18a0 5c3d 20bb f13c 4c54 c03c
00000070: 1417 d0bb 23d8 883e ddd9 823e deb7 183f
00000080: 9464 7c3d 2d28 943d 2d55 8a3d 1450 b03d
00000090: b20d 8a3d 508b ef3c 9b48 a33d 70ce 1d3e
000000a0: d731 d73c eb6d 313d 633e 243c 66ad e7bc
000000b0: ac4f 85bd c5d1 3e3c cbb9 633c dd08 c3bc
000000c0: 70bf 313e 1acc 8c3e 45ba 943e 5e59 843e
000000d0: 9001 6b3e 89a3 073f 3ab0 003f 2bd1 2b3f
000000e0: cae4 14bd dd87 54bd cf1d 1abd fc5d fb3c
000000f0: 39fa f73c b5ad 97bc 5492 963d aa79 243d
00000100: d6e2 89bd 02be 863d e9f8 51bd f84f 8dbd
00000110: 6f77 f5bd 2c37 19bd 0292 60bd eb40 813c
00000120: f160 0ebe bf88 05be 86ab 2cbd a4f6 52bd
00000130: bf7d 633d 975a f63c e8ac a6bd 8854 18be
00000140: 276c 78bd d8ff d0bd b61c c3bd f989 70bd
00000150: 44ef bfbd 13b2 f2bd eb59 c1bd 9800 0dbe
00000160: 4dfd ff3d 96a1 fb3d 4735 843d a465 f43d
00000170: 05a3 bf3d 46e0 d23d 9392 093e 666c 123e
00000180: f7af 0d3e f8df 8a3d 2786 f03b 07d7 de3b
00000190: e45b 9ebb b947 e83c e59d d23d bf32 fd3d
000001a0: 6a5e cfbd 3de0 f4bd 7fe2 8dbd 5218 95bd
000001b0: a16a d3bd 4e7b 6abd 2f79 35be 4370 aabd
000001c0: 133f 37bd 4a88 323d 3f37 cf3c 6147 8bbc
000001d0: 65a9 cdbb 26ce 463d 11d3 8d3d b64a 013e
000001e0: 50fd a83d 565d d23d f59b 0c3e 9ee7 ba3d
000001f0: f20b be3d 270d 013e 2697 2b3e a086 343e
00000200: acf0 0c3d d253 8a3d 8ef8 7f3c a6a4 3f3d
00000210: 674a ef3c 6f01 bd3d 8e79 923d bf1c 263e
00000220: de09 4bbc a530 2c3d f4de 2e3c 4a15 933c
00000230: b028 4a3d 4479 803d 63cb 8b3d cc4a 4c3e
00000240: 51a0 2abd 0811 2bbd 48f1 513c f623 a43b
00000250: 2c2a 53bd 2b9d 1f3d df11 98bb 6057 eebb
00000260: a030 bfbd 9e03 22be 9668 19be c557 e0bd
00000270: 83d8 17be 1e89 5cbe 7690 7bbe 70a8 77be
00000280: 85a3 3fbd 443c c9bd 6197 733c 6300 283d
00000290: 7880 edbd e5a2 00be cbd3 57be e756 4abe
000002a0: deaa 103e 6e1f 253e 43dd d73d 4dfa d13d
000002b0: 0a7a 393d a396 1c3e 11e6 3c3e 7e82 833e
000002c0: 6166 8d3c 85bf 053d cdf1 88bc 3d9e f2bb
000002d0: f56e 4fbc 199a 5ebd 4fc1 3dbe 1935 d2bd
000002e0: 6a03 0b3e 66f0 fa3d e772 013e 6273 f03d
000002f0: 8ebc a23d 189a 213d dcda b13d 9e6a 5b3d
00000300: 4c14 92bc b77a 88bd 52c8 9bbc ccc6 0abd
00000310: f4b3 183d 3885 2ebd cd00 8fbd c2f7 3cbe
00000320: 7d5a 303d 6c41 433c b7ee c9bc 6df9 8bbd
00000330: 63a1 aebd a86f 1bbe 0795 3bbe cc12 38bd
00000340: 163b 95bc 3824 bebc 8e3e 373c b329 523c
00000350: 5778 75bc 6b52 6e3c e603 4ebc d422 a9bd
00000360: f83c 94bd d21d 153d 56c8 343e c9e0 073e
00000370: f8fe 313e 16da 233e 19fa 2a3e aeb0 4c3d
00000380: 00bd 933d 4401 953d 9cf8 8d3d b5cc 423d
00000390: 14ed b03c 28e4 e1bc 108f c53d 176a 6a3d
000003a0: da52 89bd c8cc 03be 50d7 c7bd 9c18 ddbc
000003b0: a599 44bd 8016 f7bd b115 6bbe d0c3 26be
000003c0: 7a15 97bd 6265 58bd bc5c 8bbc a0ad 103c
000003d0: a446 dbbd fb09 1dbd 9672 843d 4819 aebc
000003e0: 9c84 e1bd efea babd b9d5 f1bd 8081 2fbd
000003f0: 6322 81bd 22d2 9fbd 47c8 9dbd 7847 c0bd
0.021812156 0.07441303 -0.025138848 -0.00053265743 0.002158386 -0.035697818 -0.08133262 -0.058546398
-0.116745554 -0.10544318 -0.07191539 -0.07309766 -0.20845373 -0.1440853 -0.22773735 -0.26039833
0.00095877907 -0.0055239955 -0.012231371 -0.05593747 -0.01700261 -0.029752119 0.054525733 -0.031823765
-0.05565132 0.053863615 0.029508173 0.023477696 -0.0063504074 0.267274 0.25556841 0.5965556
0.061619356 0.072342254 0.06754527 0.08609024 0.067408934 0.029241234 0.07972833 0.15410781
0.026268883 0.043317717 0.01002464 -0.028280925 -0.06509337 0.011646693 0.013899277 -0.023807937
0.17358184 0.27499467 0.29048362 0.25849432 0.22949815 0.5298391 0.502689 0.6711604
-0.036351003 -0.05188738 -0.037626084 0.030684464 0.030270683 -0.018515447 0.073521286 0.04015509
-0.06732719 0.0657921 -0.05126277 -0.069000185 -0.11985671 -0.03740613 -0.054826744 0.015778026
-0.13904168 -0.13040446 -0.042155765 -0.051504746 0.055539843 0.030072493 -0.08138448 -0.14875996
-0.060650017 -0.10205048 -0.095269606 -0.05872533 -0.09371808 -0.11850371 -0.094409786 -0.13769758
0.12499485 0.122866794 0.06455474 0.11933449 0.093572654 0.10296683 0.1343482 0.14299163
0.13836657 0.06781 0.007340211 0.0068005356 -0.0048327316 0.028354513 0.10284022 0.12363195
-0.1012543 -0.119568326 -0.06927966 -0.07280029 -0.10323072 -0.0572465 -0.17722009 -0.083221935
-0.044737887 0.043587007 0.025294898 -0.01700181 -0.006276297 0.048536442 0.06925023 0.12626156
0.082514405 0.10271709 0.13731368 0.09126209 0.09279622 0.12602673 0.16756877 0.1762948
0.03440921 0.06754269 0.015623225 0.04678788 0.029210282 0.09228789 0.07152091 0.16221903
-0.012392489 0.04203858 0.010673273 0.017954487 0.04935521 0.062731296 0.06825902 0.19950408
-0.041656796 -0.04176429 0.012813874 0.0050091697 -0.05155389 0.038968246 -0.0046408023 -0.0072735995
-0.09335446 -0.15821692 -0.14981303 -0.10954241 -0.14828686 -0.21536681 -0.24566826 -0.24185348
-0.046786804 -0.09825948 0.0148676345 0.041015994 -0.11596769 -0.1256214 -0.21076886 -0.19759713
0.1412768 0.1612527 0.10540249 0.10252819 0.0452824 0.15291838 0.18447138 0.25685495
0.017260732 0.03265335 -0.016716862 -0.0074041174 -0.012660732 -0.054346178 -0.18530773 -0.10264034
0.13575521 0.122528836 0.12641488 0.117407575 0.0794612 0.039453596 0.08684322 0.053568475
-0.017831944 -0.06664031 -0.019016419 -0.033880994 0.03728099 -0.042607516 -0.069825746 -0.18453887
0.043055046 0.011917453 -0.02464996 -0.068346836 -0.08526876 -0.15179312 -0.18318568 -0.0449398
-0.018216651 -0.02321063 0.011184348 0.012827325 -0.014982305 0.014546017 -0.012574172 -0.08258596
-0.07238191 0.036405392 0.17654547 0.13269342 0.17382419 0.16001162 0.16696967 0.049973182
0.07213783 0.07275632 0.06932184 0.047558505 0.021597423 -0.027574614 0.09646428 0.05723008
-0.06705256 -0.12871087 -0.097578645 -0.026989274 -0.04799809 -0.120648384 -0.22957493 -0.16285634
-0.07377143 -0.05283106 -0.017011993 0.008830458 -0.10706833 -0.038339596 0.06467168 -0.02125229
-0.11011621 -0.09126841 -0.118083425 -0.04284811 -0.06305387 -0.078037515 -0.077042155 -0.093886316

tcn.network.0.net.0.bias f4 [25]
00000000: 92b8 4fbc c0d1 8c3c 5a67 dabc 7dab c63c
00000010: e20a b23a 3b07 76bd c0dc 45bc dd77 99bb
00000020: 9332 3bbb 6c0e 023c 254b 043c 4608 523d
00000030: d261 813b 6ddf 1a3a 7755 2abc 30c7 483c
00000040: 9494 ce3c a11d dd3c 52a0 86bd dd2e 7dbc
00000050: 4ca5 6cba 0fa1 6ebc 7633 4fbd 6d26 efbb
00000060: 8e69 c93c
-0.012678282 0.01718986 -0.02666061 0.024251694 0.0013583566 -0.06006549 -0.012076557 -0.0046834783
-0.002856408 0.007938009 0.0080745565 0.05127742 0.0039484287 0.0005907927 -0.010396353 0.012254521
0.025217332 0.026991667 -0.065735474 -0.015453068 -0.00090273167 -0.014564767 -0.050586186 -0.007298282
0.024586465

tcn.network.0.net.0.weight_g f4 [25, 1, 1]
00000000: 03ba 3b3f ee23 303f 899f 333f ccff 3f3f
00000010: 7d23 2b3f ea5e 8b3f 33bd 493f 1bc8 283f
00000020: fd60 0c3f 90d4 1c3f dddc 2c3f 2e3d 3a3f
00000030: 1b92 283f ebaa 293f d1ff 9d3f e9e1 2b3f
00000040: 603f 713f 8505 613f 4ad8 8a3f 8cb2 2c3f
00000050: 6a26 2e3f cfac 0f3f 7d1b 523f f423 283f
00000060: 6b25 233f
0.73330706 0.68804824 0.70165306 0.7499969 0.66851026 1.088834 0.7880432 0.65930337
0.5483549 0.61261845 0.6752451 0.727496 0.6584794 0.66276425 1.2343694 0.67141587
0.9423733 0.8789905 1.0847256 0.6745994 0.68027365 0.5612306 0.82073194 0.6567986
0.6372897

tcn.network.0.net.0.weight_v f4 [25, 21, 8]
00000000: cb79 3881 2af4 1435 faed 411c 4f7c bc3a
00000010: d8c9 66ba bbb2 6907 d53d 9b3b 897f e1ba
00000020: 49d7 71bd 38d1 7ebd b53b dabd 82b1 d2b9
00000030: b418 8ebd eace d0bc 0e08 10be bdfa 20bd
00000040: 4451 36bc e322 0ebd 8b2a 08be c8f0 d6bb
00000050: 806c 91be c6d8 203d 4f15 77be be7b 82be
00000060: cc8b 053d f475 55bd ea6b dabd f0b8 acbc
00000070: e74b 1bbe 0c61 28bd 29ba 38be 14fb 37be
00000080: ee7f b0bd 74b2 81bd 465c d8bd e89b bbbd
00000090: f09d c5bd c851 9abd 8b48 10be b7ae 3dbe
000000a0: b6a7 5fbd 5728 48bd 9fbe 4a3c ebe8 1bbe
000000b0: b99c 12be 42e6 1b3d cd78 4bbe b7a3 4cbe
000000c0: 7bd5 4abd 9766 82bd a344 d1bd 666c 55bb
000000d0: d34a 1fbe 551e 2c3d 7c53 1bbe 684d fcbd
000000e0: 3085 62bd f8cc 94bd 0317 c3bd 33eb babb
000000f0: 6f4f 23bd b5e3 de3b 59fb 78bb 49fb a3be
00000100: 81a1 f4bc 7b31 e1bd c484 043b 1787 adbc
00000110: 5c8a b6bc 7227 89bd a600 8abd 4f6b 9a3b
00000120: 40a4 1dbd 5476 a9bd b573 7fbd f8bf d9bc
00000130: 3cc8 d9bc 4c09 04bd 8610 72be 9951 0fbe
00000140: fbb4 973a 1abc a3bc a055 b23a 4ef1 043d
00000150: cb50 e23d 1003 1fbe bfcc 7fbe d06e 223e
00000160: dded ccbd 2e06 8bbd b760 f8bd d79f 33bc
00000170: 5c9f 31be 4990 01bd 6ec5 e4bd b47c 2cbe
00000180: 420b 9f3d 649f ed3d a012 2d3e 01f9 b2bb
00000190: 0f68 1c3e f45f e53d 4209 663e b2cf 793e
000001a0: a7b1 78bc 07d1 55bd b1ff a3bd c8ba c7bd
000001b0: 95a4 26be 5e65 6dbe 42a5 a63d 0db3 70be
000001c0: e940 173e cb55 c83d 69df 033e d15c 8d3d
000001d0: ac41 e63d 474f 683d 856d 933e f5a6 6a3e
000001e0: 8e09 db3d c357 c23d 9793 073e dee1 6c3c
000001f0: c0ee 973d df90 a43d c270 3c3e fce3 2a3e
00000200: 046e c73d b578 f63d 5ac0 e83d 8cbb 933d
00000210: 1894 d63d 05a6 833d f5a3 8d3e a04b 093e
00000220: 6c99 ec3d 4b9b d73d cade 123e d15e de3c
00000230: 71c1 383e f4cc 4b3d 2656 363e 4d15 0a3e
00000240: 263f fa3d 16f9 283e 2a83 463e 26aa 4e3e
00000250: 95be 353e 0b33 0c3e f828 863e 5bef 6d3e
00000260: 13de 37bd a537 9fbd 704b adbd 5060 65bd
00000270: f50f 4d3b 8378 7ebe 981b c9bd 9f1f dcbd
00000280: 5ca3 ba3c b2db 4d3d b28b 913d 58dc afbc
00000290: 50eb b43c 7e80 9bbc d426 383c 1a35 ba3d
000002a0: f6ef 55b9 99a2 cb90 87b5 ad1f 0909 1eb2
000002b0: 1c19 482d 6acd 3226 9b7b b703 a737 6d35
000002c0: 4bd9 fe3b 013c afbc 6168 893c 5082 ca3b
000002d0: aae0 44bd c516 813b c939 98bd 4074 383d
000002e0: a272 6bbb cc33 8c3b a69f 873c c0f8 a839
000002f0: e97a eabc 1161 8e3d b267 a8be 1ac6 e73d
00000300: 4572 3dbb 1640 823c a634 c53c 3954 72bd
00000310: e3d6 84bd 6854 a23c 6a8b 613e 2c5e 373d
00000320: 34ba 193d e4d3 683c ce47 963d a03b 6abb
00000330: e950 88bd f8d8 41bc b2cd ef3e de58 983e
00000340: 21a7 dabc dd9e 11bd e506 8bbd 8d95 20bc
00000350: 2290 bbbd 069e 78bd 2f25 d53d 7ef4 91bd
00000360: 2c7e 053d d7ef b23c ca88 bfbc 6695 273c
00000370: 802b 823d 4639 b7bb 8fe8 c1be b218 713e
00000380: 4c94 303c 7508 b2bc 8ec7 a6bb 8032 b7bb
00000390: 3747 7b3c ffaa 8cbd 5b3d c1be 3f7c 93be
000003a0: b29f ccbc e0b2 03bc c516 2bbd 28c0 35bd
000003b0: 2785 5bbc 7aa3 583b 1123 5c3e 1d76 2a3e
000003c0: c1e0 69ba 9048 b33b a099 6abc 7b5c 85bd
000003d0: 6173 313c 05ab 32bd 8e40 b63e 3c1a a83e
000003e0: c78e 4f3c f47c 9a3b 43cc abbc bc55 cc3a
000003f0: 158e 9fbc 21bb 4cbd 3c6c 8f3c 554b 853e
-3.3882845e-38 5.54896e-07 6.416592e-22 0.0014380309 -0.0008803881 1.7581496e-34 0.0047375956 -0.0017204146
-0.059043203 -0.062211245 -0.106559195 -0.00040186575 -0.069383055 -0.02548929 -0.14065573 -0.039301623
-0.011127774 -0.03470124 -0.13297479 -0.006559465 -0.2840309 0.03926923 -0.24129222 -0.25485033
0.032604024 -0.052114442 -0.10665114 -0.021084279 -0.15165673 -0.041108176 -0.18039764 -0.17966872
-0.08618151 -0.06332865 -0.10564475 -0.09160596 -0.09649265 -0.0753513 -0.14090173 -0.1852368
-0.0546033 -0.048866596 0.012374549 -0.1522557 -0.14317597 0.038061388 -0.198703 -0.19984327
-0.049519997 -0.06367224 -0.102181695 -0.0032565831 -0.15555887 0.042021114 -0.15168566 -0.123194516
-0.0553028 -0.07265657 -0.095258735 -0.0057043075 -0.039870676 0.006802047 -0.0037991612 -0.32027653
-0.029862167 -0.10995766 0.0020220736 -0.02118258 -0.022282772 -0.06696977 -0.06738405 0.004712499
-0.03848672 -0.082745224 -0.062366206 -0.026580796 -0.026584737 -0.03223543 -0.23639116 -0.13995971
0.0011574322 -0.019987155 0.001360584 0.03245669 0.11050566 -0.15528512 -0.24980448 0.15862584
-0.10006306 -0.06788288 -0.12127822 -0.010963402 -0.17345947 -0.03163174 -0.11170469 -0.16844445
0.07765819 0.11602667 0.16901636 -0.0054618125 0.1527407 0.11199942 0.22464469 0.24395636
-0.015179074 -0.052201297 -0.08007754 -0.097524226 -0.1627372 -0.231832 0.08136989 -0.23505802
0.14770855 0.09781989 0.12878193 0.06902469 0.11242995 0.05671623 0.28794494 0.22915252
0.10695182 0.094893955 0.13239895 0.014458148 0.07418585 0.080354445 0.18402389 0.16688532
0.09737781 0.12034742 0.11364813 0.07213506 0.104774654 0.0642815 0.27664152 0.13407755
0.115527004 0.10527667 0.143428 0.027144821 0.18042542 0.049756005 0.178063 0.13484688
0.12219076 0.16501269 0.19385973 0.20182094 0.17748483 0.13691346 0.26203132 0.23235838
-0.04488952 -0.07774285 -0.08461654 -0.056000054 0.0031290029 -0.24850659 -0.09819716 -0.10748219
0.022782974 0.050258346 0.07106723 -0.021467373 0.022084862 -0.018982168 0.011239726 0.090921596
-0.00020402655 -8.0319903e-29 7.356866e-20 -9.198865e-09 1.1374259e-11 6.2034544e-16 1.0784152e-36 8.8370365e-07
0.007777368 -0.021390917 0.016773405 0.0061800852 -0.04806582 0.003939482 -0.07432897 0.04503274
-0.003592648 0.0042786356 0.016555618 0.0003222879 -0.028623061 0.06952108 -0.32891613 0.11317082
-0.0028907221 0.0158997 0.024072956 -0.059162352 -0.06486299 0.019815639 0.22025838 0.044767544
0.037531093 0.014210675 0.073379144 -0.0035741106 -0.066560574 -0.011831515 0.4683662 0.297553
-0.026691021 -0.035551894 -0.067884244 -0.009801281 -0.091583505 -0.060697578 0.10407483 -0.07126711
0.03259103 0.02184288 -0.023380656 0.01022849 0.06355953 -0.0055915443 -0.3787274 0.23544577
0.010777544 -0.021732548 -0.0050897067 -0.005590737 0.015336803 -0.068685524 -0.37742123 -0.2880573
-0.024978492 -0.008038253 -0.04176976 -0.044372708 -0.013398445 0.0033056424 0.21497752 0.16646619
-0.00089217356 0.0054712966 -0.014318854 -0.0651178 0.010830731 -0.04362013 0.35596126 0.32832515
0.012668318 0.0047146026 -0.020971423 0.0015589516 -0.01947693 -0.049983148 0.017507665 0.26034036

tcn.network.0.net.4.bias f4 [25]
00000000: 9a62 ad3c ca0f c6bb 7dd1 e9bc f5a4 cb3d
00000010: 1c80 0b3e 1c01 b83d 020b 33bd ab22 8d3b
00000020: 59fd d2bc 47d3 c03d 5f7c 34bb d77b e53b
00000030: 56b0 f53d 0eed 05bd 8ff4 cb3d c52a 503b
00000040: e219 97bb 78a4 463d 758f 1e3e f6c4 4abc
00000050: 0f0e 193c 9a66 d7bc fc1e d8bb d6bd 283d
00000060: 5c69 023e
0.021165181 -0.0060443627 -0.028542275 0.099435724 0.13623089 0.089845866 -0.04371167 0.0043071113
-0.025755571 0.09415298 -0.0027539951 0.0070032883 0.11996524 -0.032696776 0.09958755 0.0031763774
-0.00461124 0.048496693 0.15484412 -0.012376061 0.009341731 -0.026294041 -0.0065954905 0.041196667
0.12735504

tcn.network.0.net.4.weight_g f4 [25, 1, 1]
00000000: db51 723f 350a 8e3f 6d67 6a3e 2c9b ad3f
00000010: 2037 1c40 7864 f03f 0446 333f 4aec 5c3e
00000020: 3070 5a3e ba2a a33f b825 4c3f 9a75 6f3f
00000030: d1e4 993f cb67 543e 9129 9b3f 22c0 5c3f
00000040: 7a15 683e 2d3b b53f 6db4 953f 756b 503f
00000050: bdd2 423f baff 2f3f 58ad 633f 8722 a53f
00000060: e897 853f
0.9465615 1.1096865 0.22891016 1.356298 2.4408646 1.8780661 0.7002871 0.21574512
0.21331859 1.2747414 0.79745054 0.9353882 1.2022954 0.20742719 1.212206 0.8623067
0.22664443 1.4158684 1.1695687 0.81413966 0.7610281 0.6874958 0.88936377 1.2901162
1.0436983

tcn.network.0.net.4.weight_v f4 [25, 25, 8]
00000000: 68af b23c dc65 983d fcef cdbc 09a2 0bba
00000010: b573 0d3b e037 12bd b791 a6bd 59ce 6fbd
00000020: 4b18 efbd 98f2 d7bd 6048 93bd 3ab4 95bd
00000030: e574 55be 198b 13be fb33 69be ee52 85be
00000040: 9356 7b3a a202 b5bb 1766 48bc b01e 65bd
00000050: 0f49 8bbc b7ba f3bc 6056 5f3d a359 02bd
00000060: a3f2 63bd 18a0 5c3d 20bb f13c 4c54 c03c
00000070: 1417 d0bb 23d8 883e ddd9 823e deb7 183f
00000080: 9464 7c3d 2d28 943d 2d55 8a3d 1450 b03d
00000090: b20d 8a3d 508b ef3c 9b48 a33d 70ce 1d3e
000000a0: d731 d73c eb6d 313d 633e 243c 66ad e7bc
000000b0: ac4f 85bd c5d1 3e3c cbb9 633c dd08 c3bc
000000c0: 70bf 313e 1acc 8c3e 45ba 943e 5e59 843e
000000d0: 9001 6b3e 89a3 073f 3ab0 003f 2bd1 2b3f
000000e0: cae4 14bd dd87 54bd cf1d 1abd fc5d fb3c
000000f0: 39fa f73c b5ad 97bc 5492 963d aa79 243d
00000100: d6e2 89bd 02be 863d e9f8 51bd f84f 8dbd
00000110: 6f77 f5bd 2c37 19bd 0292 60bd eb40 813c
00000120: f160 0ebe bf88 05be 86ab 2cbd a4f6 52bd
00000130: bf7d 633d 975a f63c e8ac a6bd 8854 18be
00000140: 276c 78bd d8ff d0bd b61c c3bd f989 70bd
00000150: 44ef bfbd 13b2 f2bd eb59 c1bd 9800 0dbe
00000160: 4dfd ff3d 96a1 fb3d 4735 843d a465 f43d
00000170: 05a3 bf3d 46e0 d23d 9392 093e 666c 123e
00000180: f7af 0d3e f8df 8a3d 2786 f03b 07d7 de3b
00000190: e45b 9ebb b947 e83c e59d d23d bf32 fd3d
000001a0: 6a5e cfbd 3de0 f4bd 7fe2 8dbd 5218 95bd
000001b0: a16a d3bd 4e7b 6abd 2f79 35be 4370 aabd
000001c0: 133f 37bd 4a88 323d 3f37 cf3c 6147 8bbc
000001d0: 65a9 cdbb 26ce 463d 11d3 8d3d b64a 013e
000001e0: 50fd a83d 565d d23d f59b 0c3e 9ee7 ba3d
000001f0: f20b be3d 270d 013e 2697 2b3e a086 343e
00000200: acf0 0c3d d253 8a3d 8ef8 7f3c a6a4 3f3d
00000210: 674a ef3c 6f01 bd3d 8e79 923d bf1c 263e
00000220: de09 4bbc a530 2c3d f4de 2e3c 4a15 933c
00000230: b028 4a3d 4479 803d 63cb 8b3d cc4a 4c3e
00000240: 51a0 2abd 0811 2bbd 48f1 513c f623 a43b
00000250: 2c2a 53bd 2b9d 1f3d df11 98bb 6057 eebb
00000260: a030 bfbd 9e03 22be 9668 19be c557 e0bd
00000270: 83d8 17be 1e89 5cbe 7690 7bbe 70a8 77be
00000280: 85a3 3fbd 443c c9bd 6197 733c 6300 283d
00000290: 7880 edbd e5a2 00be cbd3 57be e756 4abe
000002a0: deaa 103e 6e1f 253e 43dd d73d 4dfa d13d
000002b0: 0a7a 393d a396 1c3e 11e6 3c3e 7e82 833e
000002c0: 6166 8d3c 85bf 053d cdf1 88bc 3d9e f2bb
000002d0: f56e 4fbc 199a 5ebd 4fc1 3dbe 1935 d2bd
000002e0: 6a03 0b3e 66f0 fa3d e772 013e 6273 f03d
000002f0: 8ebc a23d 189a 213d dcda b13d 9e6a 5b3d
00000300: 4c14 92bc b77a 88bd 52c8 9bbc ccc6 0abd
00000310: f4b3 183d 3885 2ebd cd00 8fbd c2f7 3cbe
00000320: 7d5a 303d 6c41 433c b7ee c9bc 6df9 8bbd
00000330: 63a1 aebd a86f 1bbe 0795 3bbe cc12 38bd
00000340: 163b 95bc 3824 bebc 8e3e 373c b329 523c
00000350: 5778 75bc 6b52 6e3c e603 4ebc d422 a9bd
00000360: f83c 94bd d21d 153d 56c8 343e c9e0 073e
00000370: f8fe 313e 16da 233e 19fa 2a3e aeb0 4c3d
00000380: 00bd 933d 4401 953d 9cf8 8d3d b5cc 423d
00000390: 14ed b03c 28e4 e1bc 108f c53d 176a 6a3d
000003a0: da52 89bd c8cc 03be 50d7 c7bd 9c18 ddbc
000003b0: a599 44bd 8016 f7bd b115 6bbe d0c3 26be
000003c0: 7a15 97bd 6265 58bd bc5c 8bbc a0ad 103c
000003d0: a446 dbbd fb09 1dbd 9672 843d 4819 aebc
000003e0: 9c84 e1bd efea babd b9d5 f1bd 8081 2fbd
000003f0: 6322 81bd 22d2 9fbd 47c8 9dbd 7847 c0bd
0.021812156 0.07441303 -0.025138848 -0.00053265743 0.002158386 -0.035697818 -0.08133262 -0.058546398
-0.116745554 -0.10544318 -0.07191539 -0.07309766 -0.20845373 -0.1440853 -0.22773735 -0.26039833
0.00095877907 -0.0055239955 -0.012231371 -0.05593747 -0.01700261 -0.029752119 0.054525733 -0.031823765
-0.05565132 0.053863615 0.029508173 0.023477696 -0.0063504074 0.267274 0.25556841 0.5965556
0.061619356 0.072342254 0.06754527 0.08609024 0.067408934 0.029241234 0.07972833 0.15410781
0.026268883 0.043317717 0.01002464 -0.028280925 -0.06509337 0.011646693 0.013899277 -0.023807937
0.17358184 0.27499467 0.29048362 0.25849432 0.22949815 0.5298391 0.502689 0.6711604
-0.036351003 -0.05188738 -0.037626084 0.030684464 0.030270683 -0.018515447 0.073521286 0.04015509
-0.06732719 0.0657921 -0.05126277 -0.069000185 -0.11985671 -0.03740613 -0.054826744 0.015778026
-0.13904168 -0.13040446 -0.042155765 -0.051504746 0.055539843 0.030072493 -0.08138448 -0.14875996
-0.060650017 -0.10205048 -0.095269606 -0.05872533 -0.09371808 -0.11850371 -0.094409786 -0.13769758
0.12499485 0.122866794 0.06455474 0.11933449 0.093572654 0.10296683 0.1343482 0.14299163
0.13836657 0.06781 0.007340211 0.0068005356 -0.0048327316 0.028354513 0.10284022 0.12363195
-0.1012543 -0.119568326 -0.06927966 -0.07280029 -0.10323072 -0.0572465 -0.17722009 -0.083221935
-0.044737887 0.043587007 0.025294898 -0.01700181 -0.006276297 0.048536442 0.06925023 0.12626156
0.082514405 0.10271709 0.13731368 0.09126209 0.09279622 0.12602673 0.16756877 0.1762948
0.03440921 0.06754269 0.015623225 0.04678788 0.029210282 0.09228789 0.07152091 0.16221903
-0.012392489 0.04203858 0.010673273 0.017954487 0.04935521 0.062731296 0.06825902 0.19950408
-0.041656796 -0.04176429 0.012813874 0.0050091697 -0.05155389 0.038968246 -0.0046408023 -0.0072735995
-0.09335446 -0.15821692 -0.14981303 -0.10954241 -0.14828686 -0.21536681 -0.24566826 -0.24185348
-0.046786804 -0.09825948 0.0148676345 0.041015994 -0.11596769 -0.1256214 -0.21076886 -0.19759713
0.1412768 0.1612527 0.10540249 0.10252819 0.0452824 0.15291838 0.18447138 0.25685495
0.017260732 0.03265335 -0.016716862 -0.0074041174 -0.012660732 -0.054346178 -0.18530773 -0.10264034
0.13575521 0.122528836 0.12641488 0.117407575 0.0794612 0.039453596 0.08684322 0.053568475
-0.017831944 -0.06664031 -0.019016419 -0.033880994 0.03728099 -0.042607516 -0.069825746 -0.18453887
0.043055046 0.011917453 -0.02464996 -0.068346836 -0.08526876 -0.15179312 -0.18318568 -0.0449398
-0.018216651 -0.02321063 0.011184348 0.012827325 -0.014982305 0.014546017 -0.012574172 -0.08258596
-0.07238191 0.036405392 0.17654547 0.13269342 0.17382419 0.16001162 0.16696967 0.049973182
0.07213783 0.07275632 0.06932184 0.047558505 0.021597423 -0.027574614 0.09646428 0.05723008
-0.06705256 -0.12871087 -0.097578645 -0.026989274 -0.04799809 -0.120648384 -0.22957493 -0.16285634
-0.07377143 -0.05283106 -0.017011993 0.008830458 -0.10706833 -0.038339596 0.06467168 -0.02125229
-0.11011621 -0.09126841 -0.118083425 -0.04284811 -0.06305387 -0.078037515 -0.077042155 -0.093886316

tcn.network.0.downsample.weight f4 [25, 21, 1]
00000000: 98e0 2bbb 5d79 393c 0a0f 45bd 8bcf 50bd
00000010: b6ba e8bc cc6b 80bd 6227 fdbc 6520 1ebd
00000020: 0c26 44bd 3084 62bd 74f1 5b3d 71e0 9cbd
00000030: a91e b9bc 7ffa 91bd 991e 5fbd dc9c 7dbd
00000040: 4017 803b 25b8 203e 85ce 45bd 9925 11bd
00000050: c8a5 2a3e 8836 b43a 71f1 353c 3535 bd3c
00000060: ca88 2a3d 5873 103d e6e8 453d 5980 813b
00000070: 1833 dc3c f85d 0ebb 077d edbc 812f f5bc
00000080: cb7e 263d c875 593c d11f 9d39 864d f0bd
00000090: ac6e cbbc fb91 58bb 9530 74bd 9ae6 3cbb
000000a0: feb8 41bd b90d cd3c d167 46bb 350b 0a3b
000000b0: 9217 59bb 91d0 baba afda 7db8 bad4 203b
000000c0: 3da3 efbb 6dcc 9aba fba1 743b 5e36 85ba
000000d0: 4e78 e9bb ffe6 3ebb c610 e8bb 9588 a9bb
000000e0: 25d6 1d3b 7c59 df3b 39cf abba d80d 323b
000000f0: 82ba acba 70f2 16bc 2070 9a3a 9127 0dbc
00000100: deb6 153d c0ce d9ba bc96 023d 4a00 463e
00000110: 764c ddbb 4337 9abc ba8b 52ba 4766 0dbc
00000120: ae63 d43c e489 e23c c308 2b3b e603 3abb
00000130: adbd 043e a80b 133d 2462 51bd a721 2e3d
00000140: 2096 ab3d 92d6 b43d 646c 953d e1d8 6c3d
00000150: 3153 72ba 4c6a 7a3b 1747 f9bc 9edb 84bd
00000160: 02a6 1cbd 1777 d739 0b6e 0c3c f544 b7bd
00000170: 3fcd e8bc 2371 3cbd e422 afbc 0efd d3bc
00000180: 9709 253d b9fe 67bb f359 29bc 6c25 5ebd
00000190: 414e 3cbd 2c67 8a3b 0261 073d 2bb0 d0b9
000001a0: 4dbc 27bd 7d58 963b e816 bd3c 0bd8 80bb
000001b0: 5c24 33ba 1490 cd3c f2e0 193c 5216 033d
000001c0: fbf1 e6bc c5ec ec3c 05d5 6c3c aade 56bd
000001d0: f86e e13b f279 6dbc ad6c 90bd aa7c 023d
000001e0: 2bd0 4b3c fb3e 72bc 4bca 063d d830 603d
000001f0: 5b8b d63a 1ea4 1d3b 2db8 16bb ebdf d33c
00000200: 9547 82bc c0b9 f03a 9fd9 ebbc 1ab1 063d
00000210: 79c6 53bc db9f acbb 964e 5cba cdbf a5bc
00000220: e3af 373c 143a bf3c 98c8 55bc 964f fe3c
00000230: 4f2c babc 9904 d3bc 309f 76bc 02d8 77bc
00000240: 7f41 d53b f2c4 96bc 1f72 3cbd 7c5f c6ba
00000250: b822 48bc 3384 62bb 78fa 0e39 5eda 983b
00000260: e16b 983b 2644 8abb 37e7 09ba e5ec 433b
00000270: a2f4 5e3a 523e d33a 0ec6 abbb c252 c63b
00000280: c279 9f3c 3a1b 0b3c 7554 1abc 79f2 aebb
00000290: a40c 833b 1734 4a3b d796 883b 96aa c83a
000002a0: cbd2 94ba bf73 4d3a fa73 a1bb c087 c9ba
000002b0: fc29 ab3b 85c4 16bc 83a8 823b 9eb4 c73b
000002c0: befe 39bb 6c5e aa35 6a9d b6bb 8b71 2e3a
000002d0: 3d1b 583b 1425 883b 5073 64ba a69c 77bb
000002e0: 3c35 133b 7e3f d5ba 30f9 f6b9 b9f8 daba
000002f0: 1944 163c dd9d 24bb 5900 a1bc 77ea 5c3d
00000300: 51fa 923d 5bac 92bc 1794 21bd 7997 e9bc
00000310: d8e3 7a39 1914 4fbd acb1 18bd d391 80bd
00000320: 58e4 ce3b cbb7 833c d3ab 28bc a7bd ab3c
00000330: 05fd 573d aa59 163d b517 2a3b 2850 01bb
00000340: 74df 173c 819c 633a dfe8 393c a748 de39
00000350: aa5b 96bc 9fde 2fbd 8f80 dbbc 5036 383e
00000360: a184 0dbd 225d 3fbd 1c35 e1bc 53fe 243c
00000370: 8ce2 03bd efbb 5fbd 621e 0ebd 13f0 dfbc
00000380: 6cbe 1abd 0502 46bd 1a58 23bd 1872 94bc
00000390: 85f9 27bd 031b 23bd c67b bdbc cd3f cabb
000003a0: d71c 39bd f9b9 b9bc aa88 24bb 9b8a dbbc
000003b0: b371 343d c04a 2bbd 0d5e 163d f235 35bd
000003c0: c2c5 41bd d52e 493d 4aae 453b 10c5 6ebd
000003d0: 1d9c b93a 40ad 7ebd 16bd 36bd 278e 3fbd
000003e0: daa8 2bbd 547a b7bd 2ace 1b3d ca75 35bd
000003f0: bb8a 4e3a 3e0a 853d c4da c53c 15a2 56bc
-0.0026226398 0.011320439 -0.048110045 -0.05097918 -0.028409343 -0.062705606 -0.030902568 -0.038605113
-0.047887847 -0.055301845 0.053697065 -0.07659996 -0.022597628 -0.071278565 -0.05447254 -0.06191717
0.0039090216 0.15695246 -0.048292655 -0.035436247 0.16664803 0.0013749162 0.011104927 0.02309666
0.04163436 0.03526625 0.048317812 0.003952068 0.026879832 -0.002172349 -0.028990282 -0.029929878
0.040648263 0.01327271 0.0002996908 -0.117335364 -0.024833046 -0.0033045996 -0.059616644 -0.0028823973
-0.047295563 0.025030958 -0.0030274282 0.0021063809 -0.0033125621 -0.0014252831 -6.0523565e-05 0.0024540857
-0.0073131607 -0.0011810191 0.0037327993 -0.0010163297 -0.007124937 -0.0029129384 -0.0070820777 -0.0051737526
0.002408394 0.0068160873 -0.0013108022 0.0027168896 -0.0013178142 -0.009213075 0.0011782683 -0.00861539
0.03655135 -0.0016617402 0.031882033 0.19336048 -0.0067534996 -0.018825179 -0.0008031685 -0.008630342
0.025926437 0.027653642 0.0026097752 -0.0028383671 0.1296298 0.03589979 -0.051118985 0.042512562
0.083782434 0.088299885 0.072960645 0.05782402 -0.0009243964 0.003821033 -0.030429406 -0.06487201
-0.038244255 0.00041096724 0.008571158 -0.089486994 -0.028418181 -0.046006333 -0.021378942 -0.025877502
0.04029235 -0.003539963 -0.010336387 -0.054234907 -0.045973066 0.004223725 0.0330515 -0.00039804107
-0.040951062 0.0045881853 0.023082212 -0.0039320043 -0.0006833726 0.025093116 0.00939201 0.03200371
-0.028191557 0.028921494 0.014455085 -0.052458443 0.0068796836 -0.014494406 -0.07051978 0.03185717
0.012439768 -0.0147855235 0.032907765 0.05473408 0.0016368435 0.002405412 -0.002299796 0.025863608
-0.015903274 0.0018365905 -0.028790293 0.03288374 -0.012925738 -0.0052680797 -0.0008404044 -0.02023306
0.011211368 0.023343123 -0.013048314 0.031043809 -0.022726206 -0.025759028 -0.015052602 -0.015127184
0.006508052 -0.018404458 -0.04600727 -0.0015134658 -0.012215309 -0.003456366 0.00013635482 0.0046647033
0.004651532 -0.0042195497 -0.0005260589 0.0029895839 0.0008505081 0.0016116595 -0.005242116 0.006052346
0.019467238 0.008490378 -0.00941955 -0.0053389636 0.0039993096 0.0030853802 0.004168372 0.0015309628
-0.0011354325 0.0007837377 -0.0049271556 -0.001537554 0.005223511 -0.009202127 0.0039873733 0.0060945293
-0.0028380598 1.2693467e-06 -0.0055729644 0.00066544925 0.003297522 0.0041548107 -0.00087146927 -0.0037782579
0.002246215 -0.0016269532 -0.00047106436 -0.0016706205 0.009171509 -0.0025118508 -0.019653486 0.05393454
0.0717665 -0.017904451 -0.03944787 -0.02851461 0.00023926736 -0.050556276 -0.037278816 -0.06277814
0.006313842 0.01607885 -0.010294872 0.020964457 0.052731533 0.036706604 0.0025954072 -0.0019731615
0.009269584 0.00086826837 0.011347025 0.0004239727 -0.018354256 -0.042936917 -0.0267947 0.17989469
-0.034550313 -0.046719678 -0.027491145 0.010070401 -0.032198474 -0.054622587 -0.034696944 -0.027336156
-0.037779257 -0.04834177 -0.039878942 -0.01812081 -0.041009445 -0.039820682 -0.023130309 -0.0061721564
-0.04519352 -0.022671686 -0.0025105872 -0.02679949 0.044053745 -0.041819334 0.036710788 -0.0442409
-0.047307737 0.049116928 0.0030163699 -0.058293402 0.0014160905 -0.062176943 -0.04461392 -0.046766426
-0.041909076 -0.08958879 0.03803841 -0.044301786 0.0007878949 0.06496094 0.024152167 -0.013100167

tcn.network.0.downsample.bias f4 [25]
00000000: 3417 bd3c 248a 6dbd 1cc9 3fbd 7d9a 96ba
00000010: 09a8 4abc 027f 15bd 590d e1bc 05e1 c8bd
00000020: a5d8 b1bd cf8b 1ebc 3dce 013d b6bc 253d
00000030: b4cd d5bc 45c7 9cbd c286 c23c 5375 7d3a
00000040: 274e 90bd 04db 7b3c 6d3e 433d 16e5 503d
00000050: 467b 97bd d3bc 16bd 913c 0abd 276a 8f3b
00000060: a88e 153c
0.023082353 -0.05799307 -0.046822652 -0.0011490133 -0.012369164 -0.036498077 -0.027472185 -0.09808544
-0.086839 -0.009676888 0.031690825 0.040463172 -0.026099063 -0.07655195 0.023745898 0.0009668667
-0.070461564 0.015372042 0.047666956 0.050999723 -0.073965594 -0.03680117 -0.033749167 0.004376668
0.00912825

tcn.network.1.conv1.bias f4 [25]
00000000: bcf4 6dbe 0537 613d 75cc 06bd 3741 34bd
00000010: 5a9c 35bd 6fdb f3bc bc46 e93d 2cce 0ebd
00000020: 5171 a63d c088 52bd 59b1 31ba 2ee1 8fbc
00000030: f855 cdbc bd77 c9bb dbdd 7e3c 6af7 1b3d
00000040: 9d0e 67be d759 c1bc 85e8 5bbd ae37 abbc
00000050: d472 fa3c 1fab 17bd e948 30bd ebe0 dfbc
00000060: 4b97 0fbd
-0.2323789 0.05498411 -0.03290983 -0.044007506 -0.04433856 -0.02976772 0.11390445 -0.03486459
0.08127082 -0.051399946 -0.0006778441 -0.017563429 -0.025065407 -0.006148307 0.015555824 0.03807775
-0.22564168 -0.02360241 -0.053688545 -0.020900574 0.030572332 -0.03702843 -0.043038283 -0.027328929
-0.035056394

tcn.network.1.conv1.weight_g f4 [25, 1, 1]
00000000: cbee 8f3f 9d48 873f 7b9e 5b3e 543b 323f
00000010: 9f2e 603f 112b 8c3f 57ba 853f 9dc7 543e
00000020: fa58 7a3f 0887 543f 0379 333f 08d7 183f
00000030: 7c9a 563e d8a4 383f 9f7b 673f c3e0 633f
00000040: bf3b 9c3f 46f7 2d3f d3bb 453f a776 823f
00000050: 5a14 dc3f 59bc 543f 5fc1 5c3e 950a 903f
00000060: 8462 5d3e
1.1244749 1.0569035 0.21447174 0.6962178 0.8757114 1.0950643 1.0447491 0.20779271
0.9779202 0.8301854 0.70106524 0.5970311 0.20957369 0.7212653 0.90423006 0.89014834
1.2205733 0.67955434 0.7723972 1.019246 1.7193711 0.83099896 0.2155814 1.1253229
0.21619612

tcn.network.1.conv1.weight_v f4 [25, 25, 8]
00000000: 1f81 9c3d 1e80 933d a3d2 9a3c 7674 163a
00000010: d07e eb3d 3a2a 323d 52e4 2a3e 42eb 3c3e
00000020: dfca 6ebe d0e4 26be 02f0 22be a619 c0bd
00000030: c35c 03be 07b2 37be 709c 50be db44 7bbe
00000040: 9013 9e03 41d8 98a1 39b1 2036 df07 dd91
00000050: 4e62 0301 a4b8 7b1d 00a6 6587 802f 4bb7
00000060: 45d2 aebd 1848 f33b 22a5 ee3c 9a90 c139
00000070: c74c 0b3d 5e78 35bc e7f5 79bd a0e2 653e
00000080: 3218 853c a395 eabc 2acd 8abc 9c5b 86bd
00000090: 7c73 c7bd 8a8d 28be 74fd 6cbe 32a9 6dbe
000000a0: 9f34 cabd 3f85 1cbd 223a 21bd 8745 04be
000000b0: f6f1 1bbe 12ed 45be 5bda 73be 6f86 89be
000000c0: b6a6 31be 00ee 09be 2492 7abd 333a d7bd
000000d0: 14dd 0abe e106 12be 60de 19be 2dbf 4abe
000000e0: 5152 a71e 38d7 512a 94d9 953b 2e16 fda9
000000f0: 7a9d cb88 4998 0431 ab0d 2317 1d79 eb8a
00000100: e65b 7a98 adc6 058b 8558 afa6 26e6 e50e
00000110: fe68 ef9c ee49 a532 ddcd 9e23 21ff 173b
00000120: c7e9 083c 6277 58bd fa16 25bc a1b3 21bd
00000130: 2a71 0bbe 3761 0abe 20e0 e5bd ce1e d3bd
00000140: e05d c7bc 7c6b 333d e2b3 76b9 a284 cbbb
00000150: ac38 623d 450a 34bd 6d78 65bd 405c 40be
00000160: 4d6f 28be e045 13be de44 88bd cab3 cfbd
00000170: cb76 c2bc cf75 b6bd 3bd0 c2bd b562 9abe
00000180: 5d1c 48be 8996 3cbe 5cf5 56be 1881 89be
00000190: 7dee 8abe 5116 a8be 5c96 bfbe 0427 12bf
000001a0: f7b6 d9b4 020c 01b3 5076 cd3a 6f9e b996
000001b0: 2eee 8721 de75 ac26 98e3 f339 e4ec da38
000001c0: 7e30 b4bd bf9d 2dbd 7553 efbc a4f1 c9bd
000001d0: b5a7 0fbd 7b46 893c 72a1 4bbd fb53 8dbe
000001e0: 698d 123d 0ec3 e7bc be78 543d 6be0 83bc
000001f0: 499b cabd 3b2c a3bd 05ba bf3a d475 f33d
00000200: 4eb1 5138 e9e0 6e9a c19d 3791 99ba da35
00000210: c4aa 91ba bb1f 9923 aea3 331f 1024 d637
00000220: 5e54 433e 362d b43d 6c93 bd3d 283a 163e
00000230: 3b2c 0a3e be63 3f3e 5d8a 343d 507a d33e
00000240: 3d52 863d b24a 0d3e ce75 203e d7fb 393e
00000250: b0d6 563e 8c13 643e 76ae 913e 0c00 133f
00000260: e770 dcbd 60d7 f53c 49aa 83bc 3828 6039
00000270: 0190 1ebd d8c7 503c 47f7 da3c ba3c a43d
00000280: a79c 0d3d 252f 3dbd 696c 953c 4a13 993b
00000290: bea8 8f3d bb70 1d3e 8880 4a3e cf26 0f3e
000002a0: c0ee 56bd 8c8f efbb 675e 4cbc d7bd 983c
000002b0: ab3d b8bb 62d3 2abc 57ca 9bbc 3f52 09bd
000002c0: 99e5 333d b997 073e e4d5 a83e 08a2 833e
000002d0: 0fd9 653e c258 ee3d 0997 973e bd7b 253f
000002e0: 88c4 6f3c c85d 6c3d 11c5 823d 64d2 523d
000002f0: 041e b53d d696 503d f70c 91bd 69b5 893d
00000300: ba70 20be 86d8 b4bd 84f6 22be ed38 0ebe
00000310: 9c44 5dbe b1ac 9abe 512a 5abe ec82 4abe
00000320: d902 4c3c 2874 84bb 6433 7dbc 0f87 21bc
00000330: 2fce e8bd c54e 1abc dec7 22bb 40e1 8b3d
00000340: dea1 fe3d e50c 82bc 0a0f 0f3c 735f 91bd
00000350: f0d3 0f3b 7877 843c 1288 3b3e 2899 983e
00000360: 9081 4b15 7117 1fb3 94d4 0bbd f7b1 4331
00000370: 7ddd f109 cd7f 9b2a c338 e6bc b754 cd2c
00000380: 4136 73bd 076c f7ba 2521 293c 6226 da3c
00000390: d60c c2bd 1f12 dfbc e986 3fbc 907b 1fbd
000003a0: bc97 54bd 8b1e 4dbd 6244 603d 9b28 093e
000003b0: 1d3b c83d b360 8e3c 8544 09bd 42a0 af3d
000003c0: a2d6 153e 3d16 84bc 4207 42be 9dd6 3ebe
000003d0: 809f 47be 48bd 8abc 061f c03c a679 fcbb
000003e0: e58c 88bd f659 603d 8bab 7f3c 6caa f0bd
000003f0: 0fb1 bb3d c6ba 273c ac9d 32be 73ec c4be
0.076418154 0.07202171 0.018899268 0.00057394 0.11498797 0.0434973 0.1668866 0.18449119
-0.23319577 -0.16298223 -0.15911868 -0.09379892 -0.12828355 -0.17939006 -0.20372176 -0.24537985
9.290897e-37 -1.0357163e-18 2.3945015e-06 -3.4872503e-28 2.413143e-38 3.331503e-21 -1.7276828e-34 -1.2110802e-05
-0.085361995 0.0074243657 0.029131476 0.00036919565 0.034008767 -0.011076061 -0.061025526 0.22449732
0.016246889 -0.028635805 -0.016943533 -0.06560442 -0.09738824 -0.16460243 -0.2314356 -0.23209074
-0.09873318 -0.03821301 -0.03936208 -0.12917148 -0.1522902 -0.19328716 -0.23813765 -0.26860377
-0.17348751 -0.13469696 -0.061174527 -0.105091475 -0.13560897 -0.14260437 -0.15026236 -0.1979949
1.7715858e-20 1.8637598e-13 0.0045730565 -1.12393046e-13 -1.2254641e-33 1.9295092e-09 5.268539e-25 -2.2675235e-32
-3.235814e-24 -2.5764335e-32 -1.2167058e-15 5.6674483e-30 -1.5842833e-21 1.9242147e-08 1.721758e-17 0.002319284
0.008356518 -0.052848227 -0.010076279 -0.039477948 -0.13617387 -0.13513647 -0.11224389 -0.1030861
-0.024336755 0.043803677 -0.000235274 -0.0062108794 0.055229828 -0.043955106 -0.05602305 -0.1878519
-0.16448708 -0.14382124 -0.066537604 -0.10141714 -0.023738286 -0.08909189 -0.09512373 -0.30153432
-0.1954207 -0.184168 -0.20992035 -0.26856303 -0.27135077 -0.32829526 -0.37419403 -0.57090783
-4.0552524e-07 -3.0046074e-08 0.0015675519 -2.9988348e-25 9.211001e-19 1.1966845e-15 0.00046518142 0.000104391744
-0.08798312 -0.042386767 -0.0292146 -0.098605424 -0.035072047 0.01675724 -0.049714513 -0.27603135
0.03577939 -0.028291252 0.05187296 -0.016098222 -0.098928995 -0.07967421 0.0014627582 0.11887708
4.999461e-05 -4.9398927e-23 -1.4484766e-28 1.6296573e-06 -0.0011113514 1.6601732e-17 3.8040117e-20 2.552758e-05
0.19075152 0.08797686 0.09256634 0.14670622 0.13493435 0.18690392 0.044077266 0.41304255
0.065586545 0.13798025 0.15669939 0.18162476 0.20980334 0.22273082 0.28453416 0.57421947
-0.10763722 0.030009925 -0.01607241 0.00021377287 -0.03871155 0.012742959 0.02672924 0.08019395
0.034573223 -0.04618754 0.01824017 0.004671489 0.07014607 0.15375035 0.19775593 0.13979648
-0.052473783 -0.0073108133 -0.012473679 0.01864521 -0.005622586 -0.010426374 -0.019017382 -0.0335257
0.043920133 0.13241471 0.32975686 0.25709558 0.22446083 0.11638023 0.29607418 0.64641935
0.014634259 0.057706624 0.06385244 0.051470175 0.08843616 0.0509251 -0.07082551 0.06724054
-0.15668002 -0.08830361 -0.15914351 -0.13888903 -0.21608204 -0.30209878 -0.21305205 -0.19776505
0.012451851 -0.004042167 -0.015454147 -0.009858861 -0.113674514 -0.009418194 -0.0024838368 0.068300724
0.124332175 -0.01587529 0.008731613 -0.070982836 0.0021946393 0.016170248 0.18313625 0.2980435
4.109773e-26 -3.7041392e-08 -0.034138277 2.8477396e-09 5.8226926e-33 2.762221e-13 -0.028103238 5.8358557e-12
-0.059377912 -0.0018876799 0.010322844 0.02662963 -0.094751045 -0.02723032 -0.01168988 -0.038936198
-0.051902518 -0.050077956 0.054752715 0.13394396 0.097769 0.017380094 -0.03351261 0.085754886
0.14632657 -0.016123885 -0.18948081 -0.18636556 -0.19494438 -0.01693596 0.023452293 -0.0077049313
-0.066674985 0.054773293 0.015604864 -0.117512554 0.091646306 0.010237401 -0.1744296 -0.38461646

tcn.network.1.conv2.bias f4 [25]
00000000: c6aa f63c b1cd cabc 3006 423c dee9 95bc
00000010: 3022 a5bc 1f1a 9cbc 6b05 b3bd c4b1 213d
00000020: 4edb 2abc 78f3 91be e691 a13c b6d1 af3b
00000030: c5d4 c83b 24de 05bd 4038 18bc 86db 353d
00000040: ec4e 023e fe22 dd3b ced3 c13c b78e e4bc
00000050: 1575 0ab9 1395 b5bd 469c 20bd 9b3d debd
00000060: f713 2e3c
0.030110728 -0.024756284 0.0118422955 -0.018299993 -0.020157903 -0.019055424 -0.08741268 0.03947617
-0.010428263 -0.28506064 0.01972289 0.0053655757 0.0061288797 -0.032682553 -0.009290755 0.044398807
0.12725419 0.006748556 0.023660567 -0.027900083 -0.00013204322 -0.08866324 -0.039211534 -0.10851594
0.010624877

tcn.network.1.conv2.weight_g f4 [25, 1, 1]
00000000: dadf 6b3f 7a2e 613e 8946 a93f 93d5 663f
00000010: b438 893f a423 5b3f dfab 7b3f c723 f03f
00000020: ee6b 713f d28c b73f d8d9 803f 6416 733f
00000030: 4336 3e3f 85e2 613e 10b4 773f af92 a03f
00000040: 25a3 0740 b626 bb3f 020d 973f c84e 483e
00000050: d090 373f bd55 353f 5c4d 593e 6cfd 7d3f
00000060: 618b 3f3f
0.92138445 0.21990386 1.3224651 0.9016964 1.072043 0.8560126 0.9830913 1.8760918
0.9430531 1.433985 1.0066481 0.9495604 0.74301547 0.22059067 0.9675913 1.2544764
2.1193326 1.4621189 1.1800845 0.19561303 0.7170534 0.7083395 0.21220917 0.99214816
0.7482205
