weights/geneTCN.pt (torch, 341333 bytes, 63 tensors)

tcn.network.0.conv1.bias f4 [32]
0	0x3bd1fc0d	0.0064082206
1	0x3d28eaa2	0.04123939
2	0xbd014365	-0.031558413
3	0xbc84ccd2	-0.016210947
4	0x3b527fe6	0.003211969
5	0xbcee9d06	-0.029127609
6	0xbd0be21c	-0.03415118
7	0xbca63001	-0.020286562
8	0xbc2208e3	-0.009889814
9	0xbc0a9157	-0.008457503
10	0x3cd1fd8c	0.025633596
11	0xbd3311b8	-0.04371807
12	0x3bdfb3f6	0.006826873
13	0x3d52211d	0.05130111
14	0xbd4c8dc9	-0.049939904
15	0xbd7eeb35	-0.06223603
16	0xbd08ac67	-0.03336754
17	0xbc5ca24e	-0.013466431
18	0x3d0de6bc	0.034643874
19	0xbd9014d4	-0.07035223
20	0xbce1687e	-0.027515646
21	0x3ca7f064	0.02050037
22	0x3cf2f35f	0.029657064
23	0xbcd9a81c	-0.026569419
24	0xbcd18222	-0.025574747
25	0xbd08d695	-0.033407766
26	0xbc9c9c12	-0.019117389
27	0xbd782f7a	-0.060592152
28	0xbbd925e1	-0.00662683
29	0x3cf44897	0.02981977
30	0x3ce95620	0.02848345
31	0xbc22a489	-0.009926924

tcn.network.0.conv1.weight_g f4 [32, 1, 1]
0	0x3f0dec79	0.55438954
1	0x3f210d12	0.6291057
2	0x3f08e945	0.5348094
3	0x3f02d03c	0.5109899
4	0x3f143c34	0.5790436
5	0x3ef36c91	0.47543767
6	0x3f1ffb73	0.62493056
7	0x3f0fb8e3	0.5614149
8	0x3f49019f	0.785181
9	0x3f0dab10	0.55339146
10	0x3f3d9809	0.7406011
11	0x3f1192df	0.5686473
12	0x3f45473d	0.77061826
13	0x3f03f02d	0.51538354
14	0x3f2956af	0.66147894
15	0x3f238abe	0.6388358
16	0x3f06fb65	0.5272735
17	0x3f07f836	0.53113115
18	0x3f277a04	0.65420556
19	0x3f617cf3	0.8808128
20	0x3f5b823d	0.857456
21	0x3f34db08	0.70646715
22	0x3f10661a	0.56405795
23	0x3efafd98	0.49021602
24	0x3ef33099	0.47498015
25	0x3f3f8bbf	0.7482261
26	0x3f0e254d	0.55525666
27	0x3f457967	0.7713837
28	0x3f0bd6c2	0.5462457
29	0x3f3e6477	0.7437205
30	0x3f05ea4b	0.5231063
31	0x3ef9f34a	0.48818427

tcn.network.0.conv1.weight_v f4 [32, 21, 8]
0	0x00af90c5	1.6123145e-38
1	0x33954903	6.951634e-08
2	0xb5c25d9a	-1.4481368e-06
3	0xae3ed74f	-4.339223e-11
4	0x33221820	3.7740506e-08
5	0x9ab14c27	-7.3328515e-23
6	0x9aefc8f4	-9.917274e-23
7	0x1946ca0d	1.0277164e-23
8	0xbd527ecc	-0.051390454
9	0xbca234e6	-0.019800615
10	0x3d30ec58	0.043194145
11	0x3dc8ea98	0.0981037
12	0xbd779f72	-0.060454793
13	0x3dc38627	0.09547072
14	0xbda2d497	-0.079507045
15	0xbd3315b3	-0.043721866
16	0xbd9bdd62	-0.07610585
17	0xbdc1979d	-0.09452746
18	0xbe09014f	-0.13379405
19	0x3dd01934	0.10161057
20	0xbe4bc484	-0.19899184
21	0x3d9c9ad8	0.076467216
22	0xbe1011bb	-0.14069264
23	0xbdf0deb7	-0.117612295
24	0xbd975840	-0.07389879
25	0xbd9d6883	-0.0768595
26	0xbdcb8037	-0.099365644
27	0xbe443fa1	-0.19164898
28	0xbe18455d	-0.1487021
29	0x3d8a0c13	0.06740584
30	0xbe8cae7a	-0.27476865
31	0xbdef8e30	-0.11697042
32	0x3cdbfcb7	0.026853902
33	0x3d841190	0.06448662
34	0x3c1baab4	0.009501148
35	0xbdde572f	-0.10856473
36	0xbdd4c902	-0.10389902
37	0xbd4cf386	-0.05003693
38	0xbd3f5b00	-0.046717644
39	0xbd82819b	-0.063723765
40	0xbda2e7f8	-0.07954401
41	0xbb127535	-0.0022347693
42	0xbce20b93	-0.02759341
43	0xbe16d491	-0.14729525
44	0x3df4628d	0.119328596
45	0xbdffa818	-0.12483233
46	0x3d886337	0.06659549
47	0x3d75cb62	0.060008414
48	0x3d4e63d5	0.050388176
49	0x3ccb78ee	0.024837937
50	0x3c1e1989	0.009649643
51	0x3db3792c	0.08763346
52	0xbd804818	-0.06263751
53	0x3dc287f2	0.09498586
54	0x3d1ba0f9	0.037995312
55	0x3d0e18be	0.034691565
56	0xbd8b104a	-0.06790216
57	0xbc2cda11	-0.010550038
58	0xbd46b15b	-0.048508983
59	0x3c44ef5e	0.01201996
60	0xbd974af5	-0.07387344
61	0x3dc36f34	0.09542695
62	0xbb24977e	-0.002511471
63	0xbd314a92	-0.043284006
64	0x3d1929d6	0.037393413
65	0x3d1e5b5a	0.03866134
66	0xbd1b4791	-0.037910048
67	0xbdfb4933	-0.12269821
68	0x3dae402e	0.08508335
69	0xbd1f6f7c	-0.03892468
70	0x3e67f536	0.22652134
71	0x3deb0ab0	0.11476648
72	0xbcaae936	-0.020863157
73	0xbc9d55ec	-0.01920601
74	0xbcd12041	-0.025528075
75	0xbc788c06	-0.015170103
76	0xbc596397	-0.013268373
77	0x3dd64bba	0.104636624
78	0x3da76254	0.081730515
79	0xbc71893c	-0.014742192
80	0x3c8d48d6	0.017246645
81	0x3d7eba63	0.06218947
82	0x3e0b8f84	0.13628966
83	0x3de55473	0.11197748
84	0x3da0f061	0.07858349
85	0x3c78c81a	0.015184427
86	0x3d943374	0.072363764
87	0x3d927c2e	0.07152592
88	0xbcb6ba17	-0.022305531
89	0xbd824a8b	-0.06361874
90	0xbe014c3d	-0.12626739
91	0x3d328a39	0.04358885
92	0xbda4a502	-0.08039285
93	0xbd4e46bc	-0.050360426
94	0xbcbf0d79	-0.023321854
95	0xbd676b93	-0.056499075
96	0x3e18d7f7	0.14926134
97	0x3e0beac8	0.1366378
98	0xbd9ce73a	-0.076612905
99	0xbdd8be59	-0.10583181
100	0x3e5d9b7f	0.21641348
101	0xbde825c5	-0.11335329
102	0x3e091800	0.13388062
103	0x3f02b963	0.5106413
104	0x3e230670	0.15920424
105	0x3e86d1c5	0.26331916
106	0xbd8010b8	-0.06253189
107	0x3e429ec8	0.19005883
108	0x3ec73f30	0.38915396
109	0xbdf6b2e2	-0.12045838
110	0x3ed5f44a	0.4178794
111	0x3eeb1eec	0.4592203
112	0x3cb1ad9a	0.021689225
113	0x3d04ffa2	0.032470353
114	0xbd44a770	-0.048011243
115	0x3dbf426b	0.0933884
116	0xbd15e99d	-0.036599744
117	0xbcb88edf	-0.022529064
118	0x3cb54b16	0.02213053
119	0xbcd2a802	-0.025714878
120	0x3d3c215b	0.045930248
121	0x3d0c7bbd	0.034297694
122	0x3d49de1d	0.04928409
123	0xbcdb7cb0	-0.026792854
124	0xbdaf6bea	-0.08565505
125	0x3d295049	0.04133633
126	0xbc131e7c	-0.008979436
127	0x3c74621c	0.014915969
128	0xbcf6e070	-0.030136317
129	0xbd2002f2	-0.03906531
130	0x3cdf84ff	0.027285097
131	0xbe354f07	-0.17705928
132	0xbd657032	-0.0560152
133	0xbd0a4420	-0.033756375
134	0xbd0a3522	-0.033742078
135	0x3d84895a	0.0647151
136	0xbd60c47d	-0.054874886
137	0xbd5bce03	-0.053663265
138	0xbc848211	-0.016175302
139	0xbd8a54a1	-0.06754423
140	0x3d119d64	0.03555049
141	0xbe20ced6	-0.15703902
142	0x3d0e8a05	0.034799594
143	0xbd9579ca	-0.0729862
144	0xbd2a56eb	-0.041586798
145	0x3c1c3cdb	0.009535993
146	0x3da86168	0.08221704
147	0xbe1472c8	-0.1449691
148	0xbb433d76	-0.0029791272
149	0xbdb839f3	-0.08995428
150	0xbce4afb3	-0.027915811
151	0xbd8012a6	-0.06253557
152	0xbcb6a81f	-0.022296963
153	0xbb47cb6b	-0.0030486237
154	0x3d1a13e5	0.03761663
155	0xbd129c84	-0.035793796
156	0x3e2864d9	0.1644472
157	0xbdc0c1b8	-0.09411949
158	0xbcd727e4	-0.026264139
159	0xbd817569	-0.06321222
160	0xbd3aaf7b	-0.045577507
161	0xbd7bc266	-0.06146469
162	0x3d8d18de	0.06889509
163	0xbd5eb8f0	-0.05437559
164	0xbd8da210	-0.069156766
165	0x3c1be68c	0.009515416
166	0xbd9343d8	-0.071906745
167	0x3d5bb0e8	0.053635508
168	0x9efd090a	-2.6791155e-20
169	0x9fe6903f	-9.7647424e-20
170	0xb3a4128e	-7.64022e-08
171	0x38e93a6e	0.00011121189
172	0xae2ed309	-3.9750456e-11
173	0xacda0ddc	-6.1974714e-12
174	0x8688a644	-5.140182e-35
175	0x3069670b	8.491134e-10
176	0xbd5b8921	-0.053597573
177	0xbd3b79f1	-0.04577059
178	0xbcbb9bec	-0.022901498
179	0x3d4e1c5f	0.050320026
180	0xbde741c1	-0.112918384
181	0xbd8605db	-0.065440856
182	0x3d837f63	0.064207815
183	0xba18c2f9	-0.0005827393
184	0x3a155cdd	0.00056977366
185	0xbce4c8d2	-0.02792779
186	0xbdcc40a0	-0.09973264
187	0x399be69a	0.00029735715
188	0xbd078915	-0.033089716
189	0xbe81802c	-0.252931
190	0xbd70a197	-0.058747854
191	0xbd235021	-0.03987134
192	0xbcfc3423	-0.03078658
193	0xbda0de7f	-0.07854938
194	0xbd01812e	-0.031617336
195	0xbe051ece	-0.13000032
196	0xbd55121b	-0.05201922
197	0x3cf163c7	0.029466523
198	0xbd4ffa9b	-0.050776105
199	0xbdda442f	-0.10657536
200	0xbd04efc2	-0.032455213
201	0x3cc91ece	0.024550822
202	0x3dc72724	0.09724262
203	0xbda6abaf	-0.08138215
204	0x3ce9b4df	0.028528629
205	0x3d94b9a4	0.07261971
206	0x3cfe5928	0.031048372
207	0x3b97ab56	0.004628579
208	0xbdcc43fa	-0.09973903
209	0xbe28d256	-0.16486487
210	0xbe885d0e	-0.26633495
211	0xbe8a9921	-0.27069953
212	0xbe625021	-0.22100879
213	0xbeadad5b	-0.33921322
214	0xbeb2a37c	-0.34890354
215	0xbe20a5bb	-0.15688221
216	0xbc8d4e05	-0.017249117
217	0x3c48b861	0.012250991
218	0xbd9631de	-0.0733373
219	0x3dac0fdb	0.08401462
220	0xbde059cf	-0.1095463
221	0xbd20c74e	-0.03925257
222	0x3cb3d189	0.0219505
223	0x3cb1badc	0.021695547
224	0xbd158ea0	-0.03651297
225	0xbc22556e	-0.009908063
226	0x3cb63361	0.022241296
227	0xbd98abb8	-0.07454628
228	0x3daa2f54	0.083098084
229	0xbdbcacc9	-0.09212644
230	0xbe4e6077	-0.20153986
231	0x3c93b9c2	0.018032912
232	0x3d84496f	0.06459319
233	0x3d33b7e7	0.043876555
234	0x3da0d69c	0.078534335
235	0x3db22419	0.08698291
236	0x3dea4748	0.11439377
237	0x3e8189b0	0.2530036
238	0x3e07c5c7	0.1325904
239	0x3e0876d3	0.13326578
240	0xbc6bbfdf	-0.014389007
241	0xbcb2f414	-0.021844901
242	0xbd3c2dc2	-0.045942076
243	0x3c283d14	0.010268468
244	0x3cbebf5c	0.023284607
245	0x3d3ab399	0.045581434
246	0x3d87f7f2	0.06639089
247	0x3d2bb1ac	0.041917488
248	0x3d08dfe2	0.033416636
249	0xbc5f4c94	-0.0136290975
250	0x3d94ee7c	0.0727205
251	0x3d49a680	0.049231052
252	0xbe610cea	-0.21977583
253	0x3e73c0bb	0.2380399
254	0x3e42df45	0.19030483
255	0x3d92b57e	0.07163523

tcn.network.0.conv2.bias f4 [32]
0	0x3cc18a54	0.02362553
1	0xbc407612	-0.0117469
2	0x3db3261e	0.08747505
3	0xbbc375bc	-0.0059649628
4	0xbd2d4723	-0.04230417
5	0xbc164b07	-0.009173161
6	0xbcc9fa68	-0.024655536
7	0xbd5adc1b	-0.053432565
8	0xba40a4de	-0.0007348786
9	0x3b859313	0.0040763705
10	0xbd2e6680	-0.04257822
11	0x3c01dff3	0.007926929
12	0x3ceee0e1	0.029159965
13	0xbcadf12e	-0.021233167
14	0xbc39ae5e	-0.011333076
15	0x3d05bf06	0.032652877
16	0x3c8b78cd	0.017025376
17	0xbd82f4e9	-0.06394369
18	0xbb33f262	-0.0027457704
19	0x3d0b13c6	0.033954404
20	0xbb392fce	-0.0028257254
21	0x3dab9f2d	0.0837997
22	0x3deece6a	0.11660464
23	0x3d5bd618	0.053670973
24	0x3d80060a	0.06251152
25	0xbde193f9	-0.11014552
26	0xbc3873e5	-0.0112581
27	0x3cb4b505	0.022058973
28	0x3cc5ab4e	0.024129536
29	0xbbc52a1b	-0.0060169823
30	0x3c84ff02	0.016234878
31	0xbd9a1e27	-0.07525282

tcn.network.0.conv2.weight_g f4 [32, 1, 1]
0	0x3f970c9b	1.1800722
1	0x3f4f4351	0.8096209
2	0x3f9f5de4	1.2450528
3	0x3e9fa4a9	0.31180313
4	0x3f3c6d3b	0.7360417
5	0x3f0ebde7	0.5575852
6	0x3f27fa6d	0.65616494
7	0x3ea06954	0.3133036
8	0x3f5a665a	0.85312426
9	0x3eaafb2a	0.33394748
10	0x3eaa96ad	0.33318081
11	0x3f57ec88	0.84345293
12	0x3f775d7a	0.9662701
13	0x3f2457c9	0.6419645
14	0x3f5ce48a	0.8628622
15	0x3f3cbcdc	0.73725677
16	0x3f31bb45	0.69426376
17	0x3e9c9a6a	0.3058656
18	0x3f3d8603	0.7403261
19	0x3f474520	0.7783985
20	0x3eabb051	0.33532956
21	0x3f8c2ad3	1.0950569
22	0x3f6455e4	0.8919356
23	0x3f89d7f0	1.0769024
24	0x3f7761eb	0.96633786
25	0x3f81b00a	1.0131848
26	0x3f2fbf15	0.68650943
27	0x3f257335	0.64628917
28	0x3f1db162	0.6159879
29	0x3f15ef2e	0.58568084
30	0x3f4a8be1	0.7911969
31	0x3f229faf	0.6352491

tcn.network.0.conv2.weight_v f4 [32, 32, 8]
0	0x3d659c37	0.05605718
1	0x3d949db4	0.07256642
2	0x3815b190	3.5689736e-05
3	0x3de5a239	0.11212582
4	0x3dabe683	0.08393576
5	0x3e13ce40	0.14434147
6	0x3d585b68	0.052821547
7	0x3dc08221	0.0939982
8	0x3c8af7ac	0.016963802
9	0xbd8c5e75	-0.06853954
10	0xbe0b4199	-0.13599242
11	0xbe0f81c6	-0.14014348
12	0xbe6b91df	-0.23004864
13	0xbe4e4877	-0.2014483
14	0xbe4af763	-0.19820933
15	0xbe50016c	-0.20313042
16	0x3d90a2d6	0.070623085
17	0x3dd256dc	0.10270473
18	0x3df715a6	0.12064676
19	0x3e227ac8	0.1586715
20	0x3e16a776	0.14712319
21	0x3dc67d1c	0.096918315
22	0x3e06bc87	0.13157855
23	0x3e717673	0.23580341
24	0xbd3939f3	-0.04522128
25	0xbd38c042	-0.045105226
26	0xbdc0e082	-0.094178215
27	0xbdc64439	-0.09680981
28	0xbddb592c	-0.107103676
29	0xbdbe1809	-0.09281928
30	0xbe014782	-0.12624934
31	0xbe44c3fe	-0.1921539
32	0x3dccb11d	0.09994719
33	0x3dbec3cb	0.09314688
34	0x3c23c870	0.0099965185
35	0x3aea4b34	0.0017875195
36	0x3c67d758	0.014150463
37	0x3c040f46	0.008060282
38	0x3c363b2f	0.011122509
39	0x3d676387	0.0564914
40	0xbdcc1c7c	-0.099663705
41	0xbdb7880c	-0.08961496
42	0xbdac9320	-0.08426499
43	0xbe01121e	-0.12604567
44	0xbe124930	-0.14285731
45	0xbe0640fc	-0.13110727
46	0xbe16f2fd	-0.1474113
47	0xbd6ae34c	-0.057345673
48	0x3dd9f100	0.1064167
49	0x3df85494	0.12125507
50	0x3e4a312e	0.19745323
51	0x3e24bcad	0.16087599
52	0x3e80b5f5	0.25138822
53	0x3e817824	0.25286973
54	0x3eb51182	0.3536492
55	0x3ea34fc9	0.3189681
56	0xbdd60318	-0.10449809
57	0xbe333c3d	-0.17503448
58	0xbde04843	-0.10951283
59	0xbd6a8b80	-0.057261944
60	0xbd9c1761	-0.07621647
61	0xbd7d4722	-0.061835416
62	0xbdb1b5d8	-0.08677262
63	0xbcd98d79	-0.026556717
64	0xbba13dd4	-0.0049207006
65	0xbda6b244	-0.0813947
66	0x3d6e12ad	0.05812328
67	0xbd246071	-0.040131036
68	0xbacecb53	-0.0015777148
69	0xbc5664fb	-0.013085599
70	0xbd0ae303	-0.0339079
71	0x3d0ac316	0.033877455
72	0x3a838caa	0.0010036428
73	0xbd92a52c	-0.0716041
74	0xbdc4e10d	-0.096132375
75	0xbe0f5531	-0.13997342
76	0xbe5000f5	-0.20312865
77	0xbe63985e	-0.22226092
78	0xbe4c9222	-0.1997762
79	0xbe5f1e7a	-0.2178897
80	0x3da18079	0.07885832
81	0x3d93bad9	0.07213373
82	0x3e1768e9	0.14786114
83	0x3e136ae4	0.14396244
84	0x3daa0895	0.08302418
85	0x3e0a4d8d	0.13506146
86	0x3e387469	0.18013157
87	0x3ed5031a	0.4160393
88	0x3df2be02	0.11852647
89	0x3d3ce0cc	0.04611282
90	0x3c9bc680	0.01901555
91	0x3dc2332b	0.09482416
92	0x3dcad336	0.099035665
93	0x3d6d0f0f	0.05787569
94	0x3d84b4bc	0.06479785
95	0x3e4c4488	0.19948018
96	0xbd9faf7f	-0.07797145
97	0xbd02baa7	-0.031916287
98	0xbca60de5	-0.020270297
99	0xbb9ce3a8	-0.004787881
100	0xbd8dc48b	-0.06922253
101	0xbd235907	-0.039879825
102	0xbd852f27	-0.06503134
103	0xbd56e8c7	-0.052468088
104	0xbdd0f374	-0.10202685
105	0xbdecb695	-0.11558262
106	0xbdae0f52	-0.08499016
107	0xbe08f95e	-0.13376376
108	0xbe092448	-0.13392746
109	0xbdfa33ec	-0.122169346
110	0xbe06f775	-0.13180335
111	0xbdcabae2	-0.09898926
112	0xbccc5f87	-0.024947895
113	0xbca2b11c	-0.019859843
114	0x3d38e754	0.045142487
115	0x3d248044	0.040161386
116	0x3d85526d	0.06509862
117	0x3c999c9e	0.018751439
118	0x3c03b601	0.008038999
119	0xbd5824f9	-0.052769635
120	0x3cf408d8	0.029789373
121	0x3e973456	0.29532117
122	0x3e9900fc	0.29883564
123	0x3e3c91c4	0.1841498
124	0x3e807658	0.2509029
125	0x3eb4ff80	0.3535118
126	0x3eb7fc01	0.3593445
127	0x3ec055d5	0.37565485
128	0xbd990f6b	-0.07473644
129	0xbd8a5a57	-0.06755512
130	0xbd5a98fb	-0.05336855
131	0xbe0cc013	-0.13745145
132	0xbd85d28f	-0.065343015
133	0xbe159f61	-0.1461158
134	0xbe0bb27a	-0.13642302
135	0xbdc4cbb5	-0.096091665
136	0xbdc68486	-0.096932456
137	0xbdaf3e4d	-0.08556805
138	0xbc9b3d10	-0.018950015
139	0xbbc04bad	-0.0058683963
140	0x3bedd5c9	0.007258151
141	0xbd77879d	-0.060432065
142	0xbd98a102	-0.07452585
143	0xbd089097	-0.033341017
144	0x3d2d288f	0.042275008
145	0x3d28430b	0.041079562
146	0x3ccdbab3	0.02511344
147	0x3d4fb088	0.050705463
148	0x3d5552c1	0.052080873
149	0x3dd84c3e	0.10561417
150	0x3e006fbd	0.12542625
151	0x3e2084f8	0.15675724
152	0x3d548b33	0.051890563
153	0x3d8d61ca	0.069034174
154	0x3d024480	0.031803608
155	0x3cad5507	0.021158708
156	0x3dd06d9f	0.101771586
157	0x3dc2dade	0.09514402
158	0x3cb92251	0.022599371
159	0x3cd8178f	0.026378421
160	0xbd7bf306	-0.061511062
161	0x3cc0ad0d	0.023520017
162	0xbd5d3eb3	-0.054014873
163	0xbc1b287d	-0.009470102
164	0xbd78e295	-0.06076296
165	0xbd07cdc8	-0.033155233
166	0xbd492e07	-0.04911616
167	0xbc47279c	-0.01215544
168	0xbcd4a942	-0.025959615
169	0xbd557f13	-0.05212314
170	0xbc4e9a40	-0.012610018
171	0xbcfb5df3	-0.030684447
172	0xbd8455aa	-0.064616516
173	0xbd91460d	-0.07093439
174	0xbdeb1221	-0.11478067
175	0xbe11136c	-0.14167565
176	0x3c63fa43	0.0139146475
177	0x3cb5ec57	0.022207422
178	0xbcc95d1f	-0.024580536
179	0x3c5430aa	0.012951056
180	0xbcb554fc	-0.02213525
181	0xbc93649b	-0.017992308
182	0xbdd1c5c4	-0.10242799
183	0xbd911436	-0.07083933
184	0xbd35230b	-0.044222873
185	0x3d22f4c8	0.039784223
186	0x3c0e8217	0.008698008
187	0x3d626158	0.055268615
188	0x3d20d5ae	0.03926628
189	0x3dc19162	0.09451558
190	0xbd966649	-0.07343728
191	0x3dfc1ab0	0.12309778
192	0xbd178c07	-0.036998775
193	0xbabbe09c	-0.0014333907
194	0xbc1911bb	-0.009342606
195	0xbda3180c	-0.07963571
196	0x3dbeda0c	0.09318933
197	0xbc4bb9cf	-0.012434437
198	0x3e469ea8	0.1939646
199	0xbd6e1d15	-0.058133204
200	0x3c96c608	0.018404976
201	0x3d72b439	0.059253905
202	0x3e10058d	0.14064617
203	0x3d2484bb	0.040165644
204	0x3b4e09d7	0.003143897
205	0x3db819bc	0.089892834
206	0xbd8977df	-0.06712317
207	0x3c1f9812	0.009740846
208	0xbd453a36	-0.048151217
209	0xbd3950e1	-0.045243148
210	0xbd529f4a	-0.05142144
211	0xbc4c3a00	-0.012465
212	0xbced9bd2	-0.029004965
213	0xbdfb113d	-0.12259147
214	0xbd804d13	-0.06264701
215	0xbd736bfa	-0.059429146
216	0xbcb8d81a	-0.022563983
217	0xbcdb4d22	-0.026770178
218	0x3ba68036	0.005081202
219	0xbda410b4	-0.08010998
220	0xbd938765	-0.07203559
221	0xbc80bbca	-0.015714545
222	0xbd70d626	-0.058797978
223	0xbc23250d	-0.009957564
224	0x3c70a436	0.014687588
225	0x3dd8cf30	0.10586393
226	0x3d8bad81	0.068202026
227	0x3ca9dd20	0.020735323
228	0x3d8453ee	0.06461321
229	0x3e35677c	0.17715257
230	0x3d2d1e1a	0.042265035
231	0x3e1a2335	0.15052493
232	0xbe0044fa	-0.12526312
233	0x3d8ab60f	0.06773006
234	0x3e34d5b3	0.17659645
235	0x3d355add	0.044276107
236	0x3e1b2eb1	0.1515453
237	0x3e881bab	0.2658361
238	0x3e515813	0.20443754
239	0x3e597a77	0.21238123
240	0x3d218837	0.039436545
241	0x3cdb0d81	0.026739838
242	0xbc88f8d3	-0.016720211
243	0xbce9ecbf	-0.028555272
244	0xbd157c3d	-0.036495436
245	0xbc9958e6	-0.018719148
246	0x3d679f3a	0.056548335
247	0x3d6b5221	0.05745137
248	0x3e7083bd	0.23487754
249	0x3e6f1bde	0.23350474
250	0x3e387e58	0.18016946
251	0x3e2aa560	0.16664648
252	0x3e63ef67	0.22259293
253	0x3e89cc69	0.26913765
254	0x3e8a5389	0.27016857
255	0x3de52016	0.111877605

tcn.network.0.net.0.bias f4 [32]
0	0x3bd1fc0d	0.0064082206
1	0x3d28eaa2	0.04123939
2	0xbd014365	-0.031558413
3	0xbc84ccd2	-0.016210947
4	0x3b527fe6	0.003211969
5	0xbcee9d06	-0.029127609
6	0xbd0be21c	-0.03415118
7	0xbca63001	-0.020286562
8	0xbc2208e3	-0.009889814
9	0xbc0a9157	-0.008457503
10	0x3cd1fd8c	0.025633596
11	0xbd3311b8	-0.04371807
12	0x3bdfb3f6	0.006826873
13	0x3d52211d	0.05130111
14	0xbd4c8dc9	-0.049939904
15	0xbd7eeb35	-0.06223603
16	0xbd08ac67	-0.03336754
17	0xbc5ca24e	-0.013466431
18	0x3d0de6bc	0.034643874
19	0xbd9014d4	-0.07035223
20	0xbce1687e	-0.027515646
21	0x3ca7f064	0.02050037
22	0x3cf2f35f	0.029657064
23	0xbcd9a81c	-0.026569419
24	0xbcd18222	-0.025574747
25	0xbd08d695	-0.033407766
26	0xbc9c9c12	-0.019117389
27	0xbd782f7a	-0.060592152
28	0xbbd925e1	-0.00662683
29	0x3cf44897	0.02981977
30	0x3ce95620	0.02848345
31	0xbc22a489	-0.009926924

tcn.network.0.net.0.weight_g f4 [32, 1, 1]
0	0x3f0dec79	0.55438954
1	0x3f210d12	0.6291057
2	0x3f08e945	0.5348094
3	0x3f02d03c	0.5109899
4	0x3f143c34	0.5790436
5	0x3ef36c91	0.47543767
6	0x3f1ffb73	0.62493056
7	0x3f0fb8e3	0.5614149
8	0x3f49019f	0.785181
9	0x3f0dab10	0.55339146
10	0x3f3d9809	0.7406011
11	0x3f1192df	0.5686473
12	0x3f45473d	0.77061826
13	0x3f03f02d	0.51538354
14	0x3f2956af	0.66147894
15	0x3f238abe	0.6388358
16	0x3f06fb65	0.5272735
17	0x3f07f836	0.53113115
18	0x3f277a04	0.65420556
19	0x3f617cf3	0.8808128
20	0x3f5b823d	0.857456
21	0x3f34db08	0.70646715
22	0x3f10661a	0.56405795
23	0x3efafd98	0.49021602
24	0x3ef33099	0.47498015
25	0x3f3f8bbf	0.7482261
26	0x3f0e254d	0.55525666
27	0x3f457967	0.7713837
28	0x3f0bd6c2	0.5462457
29	0x3f3e6477	0.7437205
30	0x3f05ea4b	0.5231063
31	0x3ef9f34a	0.48818427

tcn.network.0.net.0.weight_v f4 [32, 21, 8]
0	0x00af90c5	1.6123145e-38
1	0x33954903	6.951634e-08
2	0xb5c25d9a	-1.4481368e-06
3	0xae3ed74f	-4.339223e-11
4	0x33221820	3.7740506e-08
5	0x9ab14c27	-7.3328515e-23
6	0x9aefc8f4	-9.917274e-23
7	0x1946ca0d	1.0277164e-23
8	0xbd527ecc	-0.051390454
9	0xbca234e6	-0.019800615
10	0x3d30ec58	0.043194145
11	0x3dc8ea98	0.0981037
12	0xbd779f72	-0.060454793
13	0x3dc38627	0.09547072
14	0xbda2d497	-0.079507045
15	0xbd3315b3	-0.043721866
16	0xbd9bdd62	-0.07610585
17	0xbdc1979d	-0.09452746
18	0xbe09014f	-0.13379405
19	0x3dd01934	0.10161057
20	0xbe4bc484	-0.19899184
21	0x3d9c9ad8	0.076467216
22	0xbe1011bb	-0.14069264
23	0xbdf0deb7	-0.117612295
24	0xbd975840	-0.07389879
25	0xbd9d6883	-0.0768595
26	0xbdcb8037	-0.099365644
27	0xbe443fa1	-0.19164898
28	0xbe18455d	-0.1487021
29	0x3d8a0c13	0.06740584
30	0xbe8cae7a	-0.27476865
31	0xbdef8e30	-0.11697042
32	0x3cdbfcb7	0.026853902
33	0x3d841190	0.06448662
34	0x3c1baab4	0.009501148
35	0xbdde572f	-0.10856473
36	0xbdd4c902	-0.10389902
37	0xbd4cf386	-0.05003693
38	0xbd3f5b00	-0.046717644
39	0xbd82819b	-0.063723765
40	0xbda2e7f8	-0.07954401
41	0xbb127535	-0.0022347693
42	0xbce20b93	-0.02759341
43	0xbe16d491	-0.14729525
44	0x3df4628d	0.119328596
45	0xbdffa818	-0.12483233
46	0x3d886337	0.06659549
47	0x3d75cb62	0.060008414
48	0x3d4e63d5	0.050388176
49	0x3ccb78ee	0.024837937
50	0x3c1e1989	0.009649643
51	0x3db3792c	0.08763346
52	0xbd804818	-0.06263751
53	0x3dc287f2	0.09498586
54	0x3d1ba0f9	0.037995312
55	0x3d0e18be	0.034691565
56	0xbd8b104a	-0.06790216
57	0xbc2cda11	-0.010550038
58	0xbd46b15b	-0.048508983
59	0x3c44ef5e	0.01201996
60	0xbd974af5	-0.07387344
61	0x3dc36f34	0.09542695
62	0xbb24977e	-0.002511471
63	0xbd314a92	-0.043284006
64	0x3d1929d6	0.037393413
65	0x3d1e5b5a	0.03866134
66	0xbd1b4791	-0.037910048
67	0xbdfb4933	-0.12269821
68	0x3dae402e	0.08508335
69	0xbd1f6f7c	-0.03892468
70	0x3e67f536	0.22652134
71	0x3deb0ab0	0.11476648
72	0xbcaae936	-0.020863157
73	0xbc9d55ec	-0.01920601
74	0xbcd12041	-0.025528075
75	0xbc788c06	-0.015170103
76	0xbc596397	-0.013268373
77	0x3dd64bba	0.104636624
78	0x3da76254	0.081730515
79	0xbc71893c	-0.014742192
80	0x3c8d48d6	0.017246645
81	0x3d7eba63	0.06218947
82	0x3e0b8f84	0.13628966
83	0x3de55473	0.11197748
84	0x3da0f061	0.07858349
85	0x3c78c81a	0.015184427
86	0x3d943374	0.072363764
87	0x3d927c2e	0.07152592
88	0xbcb6ba17	-0.022305531
89	0xbd824a8b	-0.06361874
90	0xbe014c3d	-0.12626739
91	0x3d328a39	0.04358885
92	0xbda4a502	-0.08039285
93	0xbd4e46bc	-0.050360426
94	0xbcbf0d79	-0.023321854
95	0xbd676b93	-0.056499075
96	0x3e18d7f7	0.14926134
97	0x3e0beac8	0.1366378
98	0xbd9ce73a	-0.076612905
99	0xbdd8be59	-0.10583181
100	0x3e5d9b7f	0.21641348
101	0xbde825c5	-0.11335329
102	0x3e091800	0.13388062
103	0x3f02b963	0.5106413
104	0x3e230670	0.15920424
105	0x3e86d1c5	0.26331916
106	0xbd8010b8	-0.06253189
107	0x3e429ec8	0.19005883
108	0x3ec73f30	0.38915396
109	0xbdf6b2e2	-0.12045838
110	0x3ed5f44a	0.4178794
111	0x3eeb1eec	0.4592203
112	0x3cb1ad9a	0.021689225
113	0x3d04ffa2	0.032470353
114	0xbd44a770	-0.048011243
115	0x3dbf426b	0.0933884
116	0xbd15e99d	-0.036599744
117	0xbcb88edf	-0.022529064
118	0x3cb54b16	0.02213053
119	0xbcd2a802	-0.025714878
120	0x3d3c215b	0.045930248
121	0x3d0c7bbd	0.034297694
122	0x3d49de1d	0.04928409
123	0xbcdb7cb0	-0.026792854
124	0xbdaf6bea	-0.08565505
125	0x3d295049	0.04133633
126	0xbc131e7c	-0.008979436
127	0x3c74621c	0.014915969
128	0xbcf6e070	-0.030136317
129	0xbd2002f2	-0.03906531
130	0x3cdf84ff	0.027285097
131	0xbe354f07	-0.17705928
132	0xbd657032	-0.0560152
133	0xbd0a4420	-0.033756375
134	0xbd0a3522	-0.033742078
135	0x3d84895a	0.0647151
136	0xbd60c47d	-0.054874886
137	0xbd5bce03	-0.053663265
138	0xbc848211	-0.016175302
139	0xbd8a54a1	-0.06754423
140	0x3d119d64	0.03555049
141	0xbe20ced6	-0.15703902
142	0x3d0e8a05	0.034799594
143	0xbd9579ca	-0.0729862
144	0xbd2a56eb	-0.041586798
145	0x3c1c3cdb	0.009535993
146	0x3da86168	0.08221704
147	0xbe1472c8	-0.1449691
148	0xbb433d76	-0.0029791272
149	0xbdb839f3	-0.08995428
150	0xbce4afb3	-0.027915811
151	0xbd8012a6	-0.06253557
152	0xbcb6a81f	-0.022296963
153	0xbb47cb6b	-0.0030486237
154	0x3d1a13e5	0.03761663
155	0xbd129c84	-0.035793796
156	0x3e2864d9	0.1644472
157	0xbdc0c1b8	-0.09411949
158	0xbcd727e4	-0.026264139
159	0xbd817569	-0.06321222
160	0xbd3aaf7b	-0.045577507
161	0xbd7bc266	-0.06146469
162	0x3d8d18de	0.06889509
163	0xbd5eb8f0	-0.05437559
164	0xbd8da210	-0.069156766
165	0x3c1be68c	0.009515416
166	0xbd9343d8	-0.071906745
167	0x3d5bb0e8	0.053635508
168	0x9efd090a	-2.6791155e-20
169	0x9fe6903f	-9.7647424e-20
170	0xb3a4128e	-7.64022e-08
171	0x38e93a6e	0.00011121189
172	0xae2ed309	-3.9750456e-11
173	0xacda0ddc	-6.1974714e-12
174	0x8688a644	-5.140182e-35
175	0x3069670b	8.491134e-10
176	0xbd5b8921	-0.053597573
177	0xbd3b79f1	-0.04577059
178	0xbcbb9bec	-0.022901498
179	0x3d4e1c5f	0.050320026
180	0xbde741c1	-0.112918384
181	0xbd8605db	-0.065440856
182	0x3d837f63	0.064207815
183	0xba18c2f9	-0.0005827393
184	0x3a155cdd	0.00056977366
185	0xbce4c8d2	-0.02792779
186	0xbdcc40a0	-0.09973264
187	0x399be69a	0.00029735715
188	0xbd078915	-0.033089716
189	0xbe81802c	-0.252931
190	0xbd70a197	-0.058747854
191	0xbd235021	-0.03987134
192	0xbcfc3423	-0.03078658
193	0xbda0de7f	-0.07854938
194	0xbd01812e	-0.031617336
195	0xbe051ece	-0.13000032
196	0xbd55121b	-0.05201922
197	0x3cf163c7	0.029466523
198	0xbd4ffa9b	-0.050776105
199	0xbdda442f	-0.10657536
200	0xbd04efc2	-0.032455213
201	0x3cc91ece	0.024550822
202	0x3dc72724	0.09724262
203	0xbda6abaf	-0.08138215
204	0x3ce9b4df	0.028528629
205	0x3d94b9a4	0.07261971
206	0x3cfe5928	0.031048372
207	0x3b97ab56	0.004628579
208	0xbdcc43fa	-0.09973903
209	0xbe28d256	-0.16486487
210	0xbe885d0e	-0.26633495
211	0xbe8a9921	-0.27069953
212	0xbe625021	-0.22100879
213	0xbeadad5b	-0.33921322
214	0xbeb2a37c	-0.34890354
215	0xbe20a5bb	-0.15688221
216	0xbc8d4e05	-0.017249117
217	0x3c48b861	0.012250991
218	0xbd9631de	-0.0733373
219	0x3dac0fdb	0.08401462
220	0xbde059cf	-0.1095463
221	0xbd20c74e	-0.03925257
222	0x3cb3d189	0.0219505
223	0x3cb1badc	0.021695547
224	0xbd158ea0	-0.03651297
225	0xbc22556e	-0.009908063
226	0x3cb63361	0.022241296
227	0xbd98abb8	-0.07454628
228	0x3daa2f54	0.083098084
229	0xbdbcacc9	-0.09212644
230	0xbe4e6077	-0.20153986
231	0x3c93b9c2	0.018032912
232	0x3d84496f	0.06459319
233	0x3d33b7e7	0.043876555
234	0x3da0d69c	0.078534335
235	0x3db22419	0.08698291
236	0x3dea4748	0.11439377
237	0x3e8189b0	0.2530036
238	0x3e07c5c7	0.1325904
239	0x3e0876d3	0.13326578
240	0xbc6bbfdf	-0.014389007
241	0xbcb2f414	-0.021844901
242	0xbd3c2dc2	-0.045942076
243	0x3c283d14	0.010268468
244	0x3cbebf5c	0.023284607
245	0x3d3ab399	0.045581434
246	0x3d87f7f2	0.06639089
247	0x3d2bb1ac	0.041917488
248	0x3d08dfe2	0.033416636
249	0xbc5f4c94	-0.0136290975
250	0x3d94ee7c	0.0727205
251	0x3d49a680	0.049231052
252	0xbe610cea	-0.21977583
253	0x3e73c0bb	0.2380399
254	0x3e42df45	0.19030483
255	0x3d92b57e	0.07163523

tcn.network.0.net.4.bias f4 [32]
0	0x3cc18a54	0.02362553
1	0xbc407612	-0.0117469
2	0x3db3261e	0.08747505
3	0xbbc375bc	-0.0059649628
4	0xbd2d4723	-0.04230417
5	0xbc164b07	-0.009173161
6	0xbcc9fa68	-0.024655536
7	0xbd5adc1b	-0.053432565
8	0xba40a4de	-0.0007348786
9	0x3b859313	0.0040763705
10	0xbd2e6680	-0.04257822
11	0x3c01dff3	0.007926929
12	0x3ceee0e1	0.029159965
13	0xbcadf12e	-0.021233167
14	0xbc39ae5e	-0.011333076
15	0x3d05bf06	0.032652877
16	0x3c8b78cd	0.017025376
17	0xbd82f4e9	-0.06394369
18	0xbb33f262	-0.0027457704
19	0x3d0b13c6	0.033954404
20	0xbb392fce	-0.0028257254
21	0x3dab9f2d	0.0837997
22	0x3deece6a	0.11660464
23	0x3d5bd618	0.053670973
24	0x3d80060a	0.06251152
25	0xbde193f9	-0.11014552
26	0xbc3873e5	-0.0112581
27	0x3cb4b505	0.022058973
28	0x3cc5ab4e	0.024129536
29	0xbbc52a1b	-0.0060169823
30	0x3c84ff02	0.016234878
31	0xbd9a1e27	-0.07525282

tcn.network.0.net.4.weight_g f4 [32, 1, 1]
0	0x3f970c9b	1.1800722
1	0x3f4f4351	0.8096209
2	0x3f9f5de4	1.2450528
3	0x3e9fa4a9	0.31180313
4	0x3f3c6d3b	0.7360417
5	0x3f0ebde7	0.5575852
6	0x3f27fa6d	0.65616494
7	0x3ea06954	0.3133036
8	0x3f5a665a	0.85312426
9	0x3eaafb2a	0.33394748
10	0x3eaa96ad	0.33318081
11	0x3f57ec88	0.84345293
12	0x3f775d7a	0.9662701
13	0x3f2457c9	0.6419645
14	0x3f5ce48a	0.8628622
15	0x3f3cbcdc	0.73725677
16	0x3f31bb45	0.69426376
17	0x3e9c9a6a	0.3058656
18	0x3f3d8603	0.7403261
19	0x3f474520	0.7783985
20	0x3eabb051	0.33532956
21	0x3f8c2ad3	1.0950569
22	0x3f6455e4	0.8919356
23	0x3f89d7f0	1.0769024
24	0x3f7761eb	0.96633786
25	0x3f81b00a	1.0131848
26	0x3f2fbf15	0.68650943
27	0x3f257335	0.64628917
28	0x3f1db162	0.6159879
29	0x3f15ef2e	0.58568084
30	0x3f4a8be1	0.7911969
31	0x3f229faf	0.6352491

tcn.network.0.net.4.weight_v f4 [32, 32, 8]
0	0x3d659c37	0.05605718
1	0x3d949db4	0.07256642
2	0x3815b190	3.5689736e-05
3	0x3de5a239	0.11212582
4	0x3dabe683	0.08393576
5	0x3e13ce40	0.14434147
6	0x3d585b68	0.052821547
7	0x3dc08221	0.0939982
8	0x3c8af7ac	0.016963802
9	0xbd8c5e75	-0.06853954
10	0xbe0b4199	-0.13599242
11	0xbe0f81c6	-0.14014348
12	0xbe6b91df	-0.23004864
13	0xbe4e4877	-0.2014483
14	0xbe4af763	-0.19820933
15	0xbe50016c	-0.20313042
16	0x3d90a2d6	0.070623085
17	0x3dd256dc	0.10270473
18	0x3df715a6	0.12064676
19	0x3e227ac8	0.1586715
20	0x3e16a776	0.14712319
21	0x3dc67d1c	0.096918315
22	0x3e06bc87	0.13157855
23	0x3e717673	0.23580341
24	0xbd3939f3	-0.04522128
25	0xbd38c042	-0.045105226
26	0xbdc0e082	-0.094178215
27	0xbdc64439	-0.09680981
28	0xbddb592c	-0.107103676
29	0xbdbe1809	-0.09281928
30	0xbe014782	-0.12624934
31	0xbe44c3fe	-0.1921539
32	0x3dccb11d	0.09994719
33	0x3dbec3cb	0.09314688
34	0x3c23c870	0.0099965185
35	0x3aea4b34	0.0017875195
36	0x3c67d758	0.014150463
37	0x3c040f46	0.008060282
38	0x3c363b2f	0.011122509
39	0x3d676387	0.0564914
40	0xbdcc1c7c	-0.099663705
41	0xbdb7880c	-0.08961496
42	0xbdac9320	-0.08426499
43	0xbe01121e	-0.12604567
44	0xbe124930	-0.14285731
45	0xbe0640fc	-0.13110727
46	0xbe16f2fd	-0.1474113
47	0xbd6ae34c	-0.057345673
48	0x3dd9f100	0.1064167
49	0x3df85494	0.12125507
50	0x3e4a312e	0.19745323
51	0x3e24bcad	0.16087599
52	0x3e80b5f5	0.25138822
53	0x3e817824	0.25286973
54	0x3eb51182	0.3536492
55	0x3ea34fc9	0.3189681
56	0xbdd60318	-0.10449809
57	0xbe333c3d	-0.17503448
58	0xbde04843	-0.10951283
59	0xbd6a8b80	-0.057261944
60	0xbd9c1761	-0.07621647
61	0xbd7d4722	-0.061835416
62	0xbdb1b5d8	-0.08677262
63	0xbcd98d79	-0.026556717
64	0xbba13dd4	-0.0049207006
65	0xbda6b244	-0.0813947
66	0x3d6e12ad	0.05812328
67	0xbd246071	-0.040131036
68	0xbacecb53	-0.0015777148
69	0xbc5664fb	-0.013085599
70	0xbd0ae303	-0.0339079
71	0x3d0ac316	0.033877455
72	0x3a838caa	0.0010036428
73	0xbd92a52c	-0.0716041
74	0xbdc4e10d	-0.096132375
75	0xbe0f5531	-0.13997342
76	0xbe5000f5	-0.20312865
77	0xbe63985e	-0.22226092
78	0xbe4c9222	-0.1997762
79	0xbe5f1e7a	-0.2178897
80	0x3da18079	0.07885832
81	0x3d93bad9	0.07213373
82	0x3e1768e9	0.14786114
83	0x3e136ae4	0.14396244
84	0x3daa0895	0.08302418
85	0x3e0a4d8d	0.13506146
86	0x3e387469	0.18013157
87	0x3ed5031a	0.4160393
88	0x3df2be02	0.11852647
89	0x3d3ce0cc	0.04611282
90	0x3c9bc680	0.01901555
91	0x3dc2332b	0.09482416
92	0x3dcad336	0.099035665
93	0x3d6d0f0f	0.05787569
94	0x3d84b4bc	0.06479785
95	0x3e4c4488	0.19948018
96	0xbd9faf7f	-0.07797145
97	0xbd02baa7	-0.031916287
98	0xbca60de5	-0.020270297
99	0xbb9ce3a8	-0.004787881
100	0xbd8dc48b	-0.06922253
101	0xbd235907	-0.039879825
102	0xbd852f27	-0.06503134
103	0xbd56e8c7	-0.052468088
104	0xbdd0f374	-0.10202685
105	0xbdecb695	-0.11558262
106	0xbdae0f52	-0.08499016
107	0xbe08f95e	-0.13376376
108	0xbe092448	-0.13392746
109	0xbdfa33ec	-0.122169346
110	0xbe06f775	-0.13180335
111	0xbdcabae2	-0.09898926
112	0xbccc5f87	-0.024947895
113	0xbca2b11c	-0.019859843
114	0x3d38e754	0.045142487
115	0x3d248044	0.040161386
116	0x3d85526d	0.06509862
117	0x3c999c9e	0.018751439
118	0x3c03b601	0.008038999
119	0xbd5824f9	-0.052769635
120	0x3cf408d8	0.029789373
121	0x3e973456	0.29532117
122	0x3e9900fc	0.29883564
123	0x3e3c91c4	0.1841498
124	0x3e807658	0.2509029
125	0x3eb4ff80	0.3535118
126	0x3eb7fc01	0.3593445
127	0x3ec055d5	0.37565485
128	0xbd990f6b	-0.07473644
129	0xbd8a5a57	-0.06755512
130	0xbd5a98fb	-0.05336855
131	0xbe0cc013	-0.13745145
132	0xbd85d28f	-0.065343015
133	0xbe159f61	-0.1461158
134	0xbe0bb27a	-0.13642302
135	0xbdc4cbb5	-0.096091665
136	0xbdc68486	-0.096932456
137	0xbdaf3e4d	-0.08556805
138	0xbc9b3d10	-0.018950015
139	0xbbc04bad	-0.0058683963
140	0x3bedd5c9	0.007258151
141	0xbd77879d	-0.060432065
142	0xbd98a102	-0.07452585
143	0xbd089097	-0.033341017
144	0x3d2d288f	0.042275008
145	0x3d28430b	0.041079562
146	0x3ccdbab3	0.02511344
147	0x3d4fb088	0.050705463
148	0x3d5552c1	0.052080873
149	0x3dd84c3e	0.10561417
150	0x3e006fbd	0.12542625
151	0x3e2084f8	0.15675724
152	0x3d548b33	0.051890563
153	0x3d8d61ca	0.069034174
154	0x3d024480	0.031803608
155	0x3cad5507	0.021158708
156	0x3dd06d9f	0.101771586
157	0x3dc2dade	0.09514402
158	0x3cb92251	0.022599371
159	0x3cd8178f	0.026378421
160	0xbd7bf306	-0.061511062
161	0x3cc0ad0d	0.023520017
162	0xbd5d3eb3	-0.054014873
163	0xbc1b287d	-0.009470102
164	0xbd78e295	-0.06076296
165	0xbd07cdc8	-0.033155233
166	0xbd492e07	-0.04911616
167	0xbc47279c	-0.01215544
168	0xbcd4a942	-0.025959615
169	0xbd557f13	-0.05212314
170	0xbc4e9a40	-0.012610018
171	0xbcfb5df3	-0.030684447
172	0xbd8455aa	-0.064616516
173	0xbd91460d	-0.07093439
174	0xbdeb1221	-0.11478067
175	0xbe11136c	-0.14167565
176	0x3c63fa43	0.0139146475
177	0x3cb5ec57	0.022207422
178	0xbcc95d1f	-0.024580536
179	0x3c5430aa	0.012951056
180	0xbcb554fc	-0.02213525
181	0xbc93649b	-0.017992308
182	0xbdd1c5c4	-0.10242799
183	0xbd911436	-0.07083933
184	0xbd35230b	-0.044222873
185	0x3d22f4c8	0.039784223
186	0x3c0e8217	0.008698008
187	0x3d626158	0.055268615
188	0x3d20d5ae	0.03926628
189	0x3dc19162	0.09451558
190	0xbd966649	-0.07343728
191	0x3dfc1ab0	0.12309778
192	0xbd178c07	-0.036998775
193	0xbabbe09c	-0.0014333907
194	0xbc1911bb	-0.009342606
195	0xbda3180c	-0.07963571
196	0x3dbeda0c	0.09318933
197	0xbc4bb9cf	-0.012434437
198	0x3e469ea8	0.1939646
199	0xbd6e1d15	-0.058133204
200	0x3c96c608	0.018404976
201	0x3d72b439	0.059253905
202	0x3e10058d	0.14064617
203	0x3d2484bb	0.040165644
204	0x3b4e09d7	0.003143897
205	0x3db819bc	0.089892834
206	0xbd8977df	-0.06712317
207	0x3c1f9812	0.009740846
208	0xbd453a36	-0.048151217
209	0xbd3950e1	-0.045243148
210	0xbd529f4a	-0.05142144
211	0xbc4c3a00	-0.012465
212	0xbced9bd2	-0.029004965
213	0xbdfb113d	-0.12259147
214	0xbd804d13	-0.06264701
215	0xbd736bfa	-0.059429146
216	0xbcb8d81a	-0.022563983
217	0xbcdb4d22	-0.026770178
218	0x3ba68036	0.005081202
219	0xbda410b4	-0.08010998
220	0xbd938765	-0.07203559
221	0xbc80bbca	-0.015714545
222	0xbd70d626	-0.058797978
223	0xbc23250d	-0.009957564
224	0x3c70a436	0.014687588
225	0x3dd8cf30	0.10586393
226	0x3d8bad81	0.068202026
227	0x3ca9dd20	0.020735323
228	0x3d8453ee	0.06461321
229	0x3e35677c	0.17715257
230	0x3d2d1e1a	0.042265035
231	0x3e1a2335	0.15052493
232	0xbe0044fa	-0.12526312
233	0x3d8ab60f	0.06773006
234	0x3e34d5b3	0.17659645
235	0x3d355add	0.044276107
236	0x3e1b2eb1	0.1515453
237	0x3e881bab	0.2658361
238	0x3e515813	0.20443754
239	0x3e597a77	0.21238123
240	0x3d218837	0.039436545
241	0x3cdb0d81	0.026739838
242	0xbc88f8d3	-0.016720211
243	0xbce9ecbf	-0.028555272
244	0xbd157c3d	-0.036495436
245	0xbc9958e6	-0.018719148
246	0x3d679f3a	0.056548335
247	0x3d6b5221	0.05745137
248	0x3e7083bd	0.23487754
249	0x3e6f1bde	0.23350474
250	0x3e387e58	0.18016946
251	0x3e2aa560	0.16664648
252	0x3e63ef67	0.22259293
253	0x3e89cc69	0.26913765
254	0x3e8a5389	0.27016857
255	0x3de52016	0.111877605

tcn.network.0.downsample.weight f4 [32, 21, 1]
0	0xbc299d11	-0.010352389
1	0xbd1c2a1b	-0.038126092
2	0xbd91b7e1	-0.0711515
3	0xbdb0d893	-0.08635058
4	0xbd4dd356	-0.050250374
5	0x3e4a4cdc	0.19755882
6	0xbc8ebe67	-0.017424775
7	0xbbd77ebb	-0.0065763867
8	0xbc3eaaa1	-0.011637361
9	0xbd68cfb6	-0.056838714
10	0xbd03584c	-0.03206663
11	0xbbdf921b	-0.006822837
12	0xbbe39238	-0.006944921
13	0x3dd0bd37	0.1019234
14	0xbd0b8c0e	-0.034069113
15	0xbcf046b3	-0.029330587
16	0xbd1eba27	-0.038751747
17	0xbc980b4a	-0.01856007
18	0xbce82b97	-0.028341098
19	0xbbddd920	-0.006770268
20	0xbdcfd562	-0.101481214
21	0x3c55bd68	0.013045646
22	0xbc8b9058	-0.017036602
23	0xbce36d4b	-0.027762076
24	0x3c4e4f81	0.012592197
25	0xbcfdc211	-0.030976327
26	0xbcfddc35	-0.030988792
27	0xbd399086	-0.045303844
28	0xbd095ff1	-0.033538762
29	0xbd03def0	-0.03219503
30	0x3c58db44	0.013235871
31	0xbd23b7c2	-0.039970167
32	0xbd1279e2	-0.035760768
33	0x3d22c902	0.039742477
34	0xbd09cb05	-0.03364088
35	0xbd36e559	-0.044652317
36	0xbd0a8a2b	-0.033823173
37	0x3ae15b98	0.0017193435
38	0xbaac67d7	-0.0013153505
39	0xbac867cf	-0.0015289726
40	0xbd0aee9d	-0.033918966
41	0xbd263847	-0.040581014
42	0x3ba75617	0.0051066983
43	0xbd6169fb	-0.05503271
44	0xbd282499	-0.041050527
45	0xbd700db4	-0.05860682
46	0xbd7c37b6	-0.061576568
47	0x3d027c4f	0.03185683
48	0xbd100598	-0.035161585
49	0x3c9f4c1f	0.019445477
50	0x3b150a7d	0.0022741847
51	0xbd0f89ef	-0.035043653
52	0xbbbfc295	-0.0058520534
53	0xbd773f00	-0.060362816
54	0xbd06e44e	-0.032932572
55	0x3cd5beef	0.02609202
56	0xbc86926c	-0.016427241
57	0xbcb41deb	-0.021986922
58	0xbc1eeaa7	-0.0096995
59	0xbc559a7c	-0.01303732
60	0xbc8106e8	-0.015750363
61	0x3cc6c974	0.024265982
62	0xbcb00457	-0.021486444
63	0xba4822d0	-0.0007634582
64	0xbaa0f698	-0.0012280522
65	0xbc5d831e	-0.01352003
66	0x3c4c7bd7	0.012480698
67	0x3c09ecd7	0.008418283
68	0xba16c98e	-0.000575208
69	0xba1b889d	-0.0005933138
70	0xbc4bd697	-0.012441299
71	0x3b013b5b	0.0019719217
72	0x3b46938a	0.0030300342
73	0xbc7fac10	-0.015604988
74	0xbc6b4993	-0.014360803
75	0xbc39bdaf	-0.011336728
76	0xbb4eb0d3	-0.00315385
77	0x3c647749	0.013944455
78	0x3b3abc3a	0.002849354
79	0x3c0f0ebc	0.00873154
80	0x3b75698f	0.003744695
81	0x3b14b11d	0.0022688576
82	0xbc7b88e0	-0.015352458
83	0xbb85d6e6	-0.004084456
84	0xb8eb97dd	-0.0001123396
85	0xbd085a4e	-0.033289246
86	0xbba5091f	-0.0050364877
87	0xbc6bd086	-0.014392978
88	0xbd3dabb1	-0.046306316
89	0xbd247d27	-0.040158417
90	0xbd7b4c39	-0.06135199
91	0xbd2d475f	-0.042304393
92	0xbd6420d7	-0.05569538
93	0xbd8dad7f	-0.069178574
94	0xbd6e1a0c	-0.05813031
95	0x3bf1f64e	0.007384098
96	0x3c8a5493	0.016886031
97	0xbd5288d9	-0.05140004
98	0xbd852fe0	-0.06503272
99	0xbd81960b	-0.063274466
100	0xbb9bd49c	-0.0047555696
101	0xbda3761d	-0.07981513
102	0xbd59c34b	-0.05316476
103	0xbda90a82	-0.08253957
104	0xbd252027	-0.040313866
105	0x3bca5d11	0.006175645
106	0x3af87a26	0.0018957302
107	0x3c774b18	0.015093587
108	0x3ba51a39	0.0050385264
109	0xbc981995	-0.018566886
110	0xbbf3e789	-0.0074433726
111	0x3caf0da0	0.021368802
112	0xbbd3a0bd	-0.0064583705
113	0x3c8879d0	0.016659647
114	0x3cc19522	0.023630682
115	0xbb11beb2	-0.0022238907
116	0x3cb2cbf6	0.021825772
117	0x3d0763c7	0.03305414
118	0x3d5a4a9a	0.0532938
119	0x3cbf43be	0.023347732
120	0x3c615384	0.013752822
121	0xbc9412b1	-0.018075319
122	0xbb17a52e	-0.0023139226
123	0x3c7c022b	0.015381376
124	0xb9ec4117	-0.00045061923
125	0x3aa29d33	0.0012406468
126	0x3c2ce8fa	0.010553593
127	0x3d05f265	0.03270187
128	0x3cd39cf4	0.025831677
129	0x3c948260	0.018128574
130	0x3db1d6e6	0.08683567
131	0x3d092431	0.03348178
132	0x3cd8cabd	0.02646386
133	0x3c720e81	0.014773966
134	0x3cc89167	0.024483396
135	0x3caf5030	0.021400541
136	0x3c8d0ce5	0.017218063
137	0x3d0e7147	0.034776
138	0x3be74435	0.0070576915
139	0x3ddf6e36	0.10909693
140	0x3ba74304	0.0051044244
141	0x3c76e34f	0.015068843
142	0x3c9166e6	0.017749261
143	0x3c3d3c71	0.011550055
144	0x3c624788	0.013811
145	0x3c4a8594	0.012360949
146	0x3c9642ad	0.01834234
147	0xbc16b4e5	-0.009198402
148	0xbc79b9e8	-0.015242077
149	0x3a5fce97	0.0008537559
150	0x3c3f5847	0.011678762
151	0xbc8367cf	-0.01604071
152	0x3c3dc536	0.011582663
153	0xbc801438	-0.015634641
154	0x3d450549	0.048100743
155	0xbcae2e8c	-0.02126243
156	0xbba0bf0b	-0.0049055866
157	0xbb3ec4f7	-0.00291091
158	0x3b786fbc	0.0037908396
159	0x3c86d32d	0.016458118
160	0x3b78e3c2	0.003797755
161	0x3c492c3a	0.012278611
162	0xbd0053d0	-0.03132993
163	0xbb45cc5e	-0.0030181627
164	0xbb404a38	-0.0029341113
165	0xbcdc2c2f	-0.026876537
166	0x38f7234e	0.00011784454
167	0xbd01a709	-0.031653438
168	0x3b99f6dc	0.0046986174
169	0xbd7600fa	-0.060059525
170	0xbd6b561d	-0.05745517
171	0xbd50e1a9	-0.050996456
172	0xbd7b548f	-0.06135994
173	0xbd1bb439	-0.03801367
174	0xbd513d8a	-0.05108408
175	0xbd59ecb5	-0.053204257
176	0xbd19e8d2	-0.03757555
177	0xbd229ce3	-0.0397004
178	0xbd8bdf42	-0.068296924
179	0xbdab81d8	-0.08374375
180	0xbda179e9	-0.07884581
181	0xbd8f1205	-0.06985859
182	0xbd734e67	-0.059400942
183	0xbd389a70	-0.045069158
184	0xbb99c4ad	-0.004692635
185	0xbc4405f0	-0.011964306
186	0xbd80cc15	-0.062889256
187	0xbd8b3f53	-0.067991875
188	0xbdb4c5f1	-0.08826817
189	0xba8b7a81	-0.0010641367
190	0xbbb70e65	-0.0055864328
191	0xbc8898dc	-0.016674452
192	0xba854cdf	-0.0010170004
193	0x3b1580e6	0.0022812425
194	0x3c0c13e7	0.008549667
195	0xbc03455b	-0.008012141
196	0xbabad4a2	-0.0014254043
197	0x3b802c0d	0.0039115013
198	0xbb1639ca	-0.0022922629
199	0xbc603288	-0.013683923
200	0x3c481adb	0.012213434
201	0x3ba13f7f	0.0049208994
202	0x3b4b2d0a	0.0031002187
203	0xbb9ce52f	-0.004788063
204	0x3bc86c35	0.006116415
205	0xbc36f70e	-0.011167301
206	0xbc175630	-0.009236857
207	0xb85c8000	-5.2571297e-05
208	0xba49c20f	-0.00076964585
209	0xbb3f8e16	-0.0029228977
210	0x3c07e1aa	0.008293549
211	0xbd84a0ba	-0.06475969
212	0xbd778ef6	-0.060439073
213	0xbd91de89	-0.07122523
214	0xbd8a764c	-0.067608446
215	0xbd9e5bec	-0.077323765
216	0xbd8c3cd0	-0.068475366
217	0xbd99d366	-0.07511024
218	0xbd6388e9	-0.05555049
219	0xbd4a2187	-0.04934838
220	0xbd5ecec2	-0.0543964
221	0xbd89acda	-0.06722422
222	0xbda37f93	-0.07983317
223	0xbda5376d	-0.08067212
224	0xbd7c508c	-0.061600253
225	0x3c8dd3f9	0.01731299
226	0xbd888146	-0.06665282
227	0x3d939124	0.07205418
228	0xbd8478e1	-0.06468368
229	0xbd88ff14	-0.06689277
230	0x3dd7e5c4	0.10541871
231	0x3b2f73fe	0.0026772018
232	0x3ac2ee1d	0.0014871989
233	0x3ca4ab9e	0.020101365
234	0x3be4c01c	0.006980909
235	0xbd54f6af	-0.05199307
236	0x3d71dbf4	0.059047654
237	0xbc5bf9d8	-0.013426267
238	0x3c1193cd	0.008885336
239	0xbcee86f8	-0.029117092
240	0xbba9bf7c	-0.0051802974
241	0xbc0040eb	-0.007827978
242	0x3d48fb92	0.04906804
243	0xbd0d986d	-0.034569193
244	0x3d800112	0.06250204
245	0xbcf4dce5	-0.029890487
246	0xbbf3a652	-0.0074355984
247	0x3b54f5ee	0.0032495218
248	0xbc9a605f	-0.018844781
249	0xbba052e3	-0.0048926934
250	0xbc293732	-0.010328101
251	0x3bd838f1	0.006598585
252	0xb8d79c45	-0.000102811064
253	0xbd60ac58	-0.05485186
254	0xbd67e08b	-0.056610625
255	0xbd8df925	-0.06932286

tcn.network.0.downsample.bias f4 [32]
0	0x3b3ca105	0.0028782499
1	0x3ce03976	0.02737115
2	0x3c1bc885	0.009508257
3	0xbe03135f	-0.12800358
4	0x3d052f1f	0.03251564
5	0xbd173e55	-0.03692468
6	0xbd273213	-0.04081924
7	0xbd647a50	-0.05578071
8	0x3d1e5863	0.03865851
9	0xbe09ac5d	-0.13444658
10	0x3d39ebca	0.04539088
11	0xbc321f9b	-0.010871793
12	0x3d549e42	0.05190874
13	0xbc1b9b16	-0.009497425
14	0xbc5f6f37	-0.0136373555
15	0xbd714eb8	-0.058912963
16	0xbdb9ac1b	-0.0906603
17	0x3d069b10	0.032862723
18	0x3cc53bb4	0.02407632
19	0xbd875f72	-0.066100016
20	0xbdbd76b5	-0.09251157
21	0x3c6a0b79	0.014284962
22	0x3d1f8db0	0.038953483
23	0x3d64f81c	0.055900678
24	0x3cd01425	0.02540023
25	0x3b9ac307	0.004722956
26	0xbb89de2b	-0.0042073927
27	0x3cd8596d	0.026409829
28	0xbd993f43	-0.07482769
29	0xbd8a0aca	-0.06740339
30	0xbd16208f	-0.036652144
31	0x3d046c8c	0.03233008

tcn.network.1.conv1.bias f4 [32]
0	0xbd0d8df4	-0.034559205
1	0xbd01b663	-0.03166808
2	0x3d23a001	0.039947513
3	0x3c00811f	0.007843285
4	0x39e79f0e	0.00044178258
5	0xbb6fa70b	-0.0036568071
6	0x3cc6ddfe	0.024275776
7	0x3d3f765d	0.04674374
8	0x3d548484	0.05188419
9	0x3aac0fc8	0.0013127262
10	0x3ce84636	0.028353792
11	0xbd110c24	-0.03541197
12	0xbac4b25b	-0.0015006767
13	0xbd6b111a	-0.057389356
14	0xbd14d51b	-0.036336046
15	0xb96abd0f	-0.00022386409
16	0xbd1a5139	-0.037675116
17	0x3d645d51	0.055753056
18	0x3b107e0d	0.0022047788
19	0xbd45ec80	-0.048321247
20	0xbc1c2aea	-0.009531716
21	0x3d377097	0.04478511
22	0xbe2bf07f	-0.1679096
23	0xbc11afb0	-0.008891985
24	0x3da9071d	0.0825331
25	0x3d33ae03	0.043867122
26	0x3c3752f7	0.011189214
27	0xbc6058cc	-0.013693046
28	0xbd30f6d2	-0.043204136
29	0xbd2bc9c1	-0.041940454
30	0xbd5d09a8	-0.053964287
31	0x3d032116	0.032013975

tcn.network.1.conv1.weight_g f4 [32, 1, 1]
0	0x3f0b45e2	0.5440351
1	0x3ea48e16	0.32139653
2	0x3f674cde	0.90351665
3	0x3f00abe7	0.502623
4	0x3f36d363	0.714163
5	0x3f921dc5	1.1415335
6	0x3f93fab8	1.1560888
7	0x3f8a6d7c	1.0814662
8	0x3f629f25	0.88524085
9	0x3f1a62c7	0.6030697
10	0x3f57a5bf	0.84237283
11	0x3ea78fcf	0.32726905
12	0x3f079330	0.52958965
13	0x3f152b9b	0.5826966
14	0x3eb0bc94	0.34518874
15	0x3f34ed98	0.7067504
16	0x3f2cf689	0.6756368
17	0x3f9479cf	1.1599673
18	0x3f1d426c	0.61429477
19	0x3fa0b376	1.2554767
20	0x3f0c8d23	0.5490286
21	0x3fa078fa	1.2536919
22	0x3fa261ba	1.2686074
23	0x3ea989a6	0.3311283
24	0x3fa3f687	1.2809609
25	0x3feec690	1.8654346
26	0x3f78c58d	0.9717644
27	0x3ea9360f	0.33049056
28	0x3ea56601	0.32304385
29	0x3eed6842	0.46368605
30	0x3f32e144	0.6987498
31	0x3fbddd51	1.4833165

tcn.network.1.conv1.weight_v f4 [32, 32, 8]
0	0xbd1796c2	-0.03700901
1	0xbd291fb0	-0.041289985
2	0xbd16ce48	-0.03681782
3	0xba3847be	-0.00070297334
4	0xbc00d584	-0.007863406
5	0xbd0c57f5	-0.03426357
6	0xbd905e06	-0.070491835
7	0xbdb06cfb	-0.086145364
8	0xbdcd3562	-0.100199476
9	0xbcfc40d6	-0.030792635
10	0xbce3dbd7	-0.027814789
11	0xbbbbccc4	-0.005731197
12	0xbd38acec	-0.045086786
13	0xbc9e3ffa	-0.019317616
14	0xbbaaaa95	-0.0052083232
15	0xbd165ed3	-0.036711525
16	0x3d87ad30	0.0662483
17	0x3de25d9f	0.11053013
18	0x3cab9f08	0.020949855
19	0x3dc26d0b	0.094934545
20	0x3c4887fe	0.012239454
21	0x3dfa19a1	0.122119196
22	0x3db86bed	0.0900496
23	0x3e992f8b	0.29919085
24	0x3593d9a5	1.1015696e-06
25	0x08f17f69	1.4534614e-33
26	0xb26daaad	-1.3834023e-08
27	0x2be56d0c	1.6301695e-12
28	0xac01191c	-1.8345941e-12
29	0x371918f0	9.125317e-06
30	0x9e40062a	-1.016567e-20
31	0x970132e0	-4.174636e-25
32	0x3eb30fe7	0.3497307
33	0x3e1fd3a3	0.15608077
34	0x3cb64e28	0.022254065
35	0x3cc0fc08	0.023557678
36	0x3d57282a	0.052528538
37	0x3e09c1c1	0.13452817
38	0x3e0d4907	0.13797389
39	0x3ea147a0	0.31499958
40	0x3b0cfc84	0.0021512816
41	0xbd1bf2b5	-0.03807326
42	0x3c224720	0.009904653
43	0x3b63367d	0.0034669929
44	0x3d39fe89	0.04540876
45	0x3ca73b77	0.020414097
46	0x3d7357a2	0.059409745
47	0x3d8c4f1d	0.06851027
48	0x3e2992ce	0.16559908
49	0x3d84c49c	0.06482813
50	0x3dbf2c9f	0.09334683
51	0x3d9772ca	0.07394941
52	0x3da59237	0.08084529
53	0x3c598f70	0.013278827
54	0x3d4d8fd0	0.05018598
55	0x3d84d129	0.06485207
56	0x93bf5dd5	-4.8307704e-27
57	0x321f83f2	9.285019e-09
58	0x06526285	3.956899e-35
59	0x200a8790	1.1733909e-19
60	0x9f048140	-2.8059e-20
61	0xb9865cbb	-0.0002562756
62	0xaf7ae8bf	-2.2820056e-10
63	0x123b5906	5.9116526e-28
64	0xbe19a8f0	-0.15005851
65	0xbdcf86eb	-0.101331554
66	0xbd5a324a	-0.053270616
67	0xbd90b1be	-0.07065152
68	0xbd65c793	-0.056098532
69	0xbda351de	-0.07974599
70	0xbde7f8a7	-0.113267235
71	0xbe434a06	-0.19071206
72	0xb10f5537	-2.0857678e-09
73	0x81f9c1ea	-9.174641e-38
74	0xac8b2796	-3.9550125e-12
75	0x9903bcba	-6.810654e-24
76	0x351463e5	5.527966e-07
77	0x0cfd65f8	3.9042192e-31
78	0xa7461742	-2.7490628e-15
79	0x000080a2	4.6145e-41
80	0xbd6a545b	-0.057209354
81	0xbcd0dec9	-0.025496857
82	0xbd8775cc	-0.06614265
83	0xbd403d76	-0.046933614
84	0xbd376b11	-0.04477984
85	0xbce997d0	-0.028514773
86	0xbd926a7e	-0.07149218
87	0xbd41f6f1	-0.047354642
88	0xbe05cc95	-0.13066323
89	0xbdf77f00	-0.1208477
90	0xbd8f6f9b	-0.07003709
91	0xbce1e344	-0.027574189
92	0x3d5e3796	0.05425223
93	0x3bb3bc63	0.005485104
94	0x3c581e67	0.013190842
95	0xbd79b344	-0.060961977
96	0x3d3790dd	0.044815887
97	0x3c5a5d00	0.013327837
98	0x3ceaa921	0.0286451
99	0x3ca7dbf9	0.020490633
100	0x3dd876e9	0.10569555
101	0x3dbcbb4f	0.09215414
102	0x3e05b31e	0.13056609
103	0x3e13614d	0.14392586
104	0x3cbca77c	0.023029082
105	0xbcc8fbca	-0.024534125
106	0xbb76c5a3	-0.0037654422
107	0xbd150522	-0.03638185
108	0xbb3c7eb7	-0.0028762051
109	0xbd12bd0b	-0.035824817
110	0xbafc4692	-0.0019247106
111	0xbc12fc09	-0.008971223
112	0x3d680f41	0.056655172
113	0x3c9d157f	0.01917529
114	0x3d77b2ed	0.06047337
115	0x3d1c16ad	0.038107563
116	0x3da9911b	0.0827963
117	0x3cab9d7d	0.02094912
118	0x3d5cecc7	0.053936746
119	0xbcd65187	-0.026161922
120	0x3cffc2ab	0.031220755
121	0x3cff40a6	0.031158756
122	0x3d88709e	0.06662105
123	0x3d6d86a3	0.057989728
124	0x3d7827c5	0.060584802
125	0x3d9119be	0.07084988
126	0x3dab8c3c	0.08376357
127	0x3e2e7ad8	0.17039049
128	0x3d26c44c	0.040714547
129	0x3caf2b54	0.021382965
130	0x3c82dffc	0.015975945
131	0x3c10e969	0.008844712
132	0xbab2adf3	-0.0013632163
133	0xbd388399	-0.045047376
134	0xbd21c54b	-0.039494794
135	0x3b3819e1	0.0028091597
136	0xbd4f07c9	-0.050544534
137	0x3df207ca	0.11817892
138	0x3c9bd36b	0.01902171
139	0x3c035f3b	0.00801831
140	0x3ce72f14	0.02822069
141	0x3d4b3bfd	0.049617756
142	0x3cbc0ec6	0.022956263
143	0x3e1481e6	0.14502677
144	0xbdaa9b65	-0.083304204
145	0xbd8f4fe2	-0.06997658
146	0xbd2630fb	-0.040574055
147	0xbd245d29	-0.040127907
148	0xbab25d4d	-0.0013608128
149	0xbd278868	-0.04090157
150	0xbd178102	-0.036988266
151	0xbdd68dff	-0.10476302
152	0x3dbdfe32	0.092769995
153	0x3db7873e	0.08961342
154	0x3d6ec639	0.05829451
155	0x3dae0920	0.08497834
156	0x3d726651	0.059179608
157	0x3dd9c4a5	0.1063321
158	0x3dee4c81	0.11635686
159	0x3ea168ec	0.31525362
160	0x97d82dd2	-1.397024e-24
161	0x8b0c4267	-2.7012975e-32
162	0x390a98ce	0.0001321763
163	0x3926fed6	0.00015925927
164	0xa75e82b1	-3.0879537e-15
165	0x8c556c13	-1.6441446e-31
166	0x8002dcc1	-2.62863e-40
167	0x9de81f70	-6.1442394e-21
168	0xbd76b0e2	-0.060227282
169	0x3ceae10a	0.02867176
170	0xbc9ffe19	-0.019530343
171	0x3d3136c4	0.04326512
172	0x3b2208aa	0.0024724402
173	0x3da75080	0.08169651
174	0x3c8c54ee	0.017130341
175	0x3d150f7b	0.036391716
176	0x3d5fc580	0.05463171
177	0x3e0e2f5d	0.13885255
178	0x3d8bf283	0.06833365
179	0x3e02a0db	0.12756674
180	0x3d39e012	0.045379706
181	0x3e0f0795	0.13967736
182	0x3daa1e89	0.08306605
183	0x3e18952c	0.14900655
184	0xbe245481	-0.1604786
185	0xbe26badc	-0.16282219
186	0xbd9634c4	-0.07334283
187	0xbd939be5	-0.07207469
188	0x3c382933	0.011240291
189	0xbd90544a	-0.07047327
190	0xbd8010bf	-0.06253194
191	0xbe490493	-0.19630651
192	0xbd7adbb8	-0.061244696
193	0xbc762435	-0.015023281
194	0xbd8c939e	-0.06864093
195	0xbd572350	-0.05252391
196	0xbd91dab4	-0.071217924
197	0xbd2551ce	-0.04036122
198	0x3c8aa986	0.016926538
199	0x3dfab526	0.122415826
200	0x3eda0d8c	0.4258846
201	0x3e95cb0c	0.29256475
202	0x3de044dc	0.10950634
203	0x3d9a7dca	0.075435236
204	0x3cc8efba	0.024528373
205	0x3ddaae54	0.10677782
206	0x3d93c838	0.07215923
207	0x3e5ce0ec	0.21570176
208	0xbdd4da2b	-0.10393175
209	0xbded931f	-0.11600327
210	0xbdb2edef	-0.087367885
211	0xbdaa066e	-0.083020076
212	0xbd4f6e1a	-0.05064211
213	0xbd696e44	-0.056989923
214	0xbd0c6092	-0.034271784
215	0xbd403855	-0.046928722
216	0x3d78aa30	0.06070918
217	0x3d885262	0.06656338
218	0x3b1aea5f	0.0023638231
219	0x3cfd2b48	0.030904427
220	0xbb399316	-0.002831643
221	0x3d26876f	0.040656503
222	0x3dc3193a	0.09526296
223	0x3e48e22a	0.19617525
224	0x3e0753cf	0.13215564
225	0x3d9b6284	0.0758715
226	0x3d9eb059	0.077484794
227	0x3d8214f1	0.063516505
228	0x3dee98e1	0.11650253
229	0x3e0ac4bb	0.13551609
230	0x3e6facad	0.23405714
231	0x3ea43067	0.32068178
232	0x3cacc0c3	0.02108801
233	0xbc84a717	-0.016192956
234	0x3c67c767	0.014146662
235	0x3b6f1927	0.0036483498
236	0x3d0f3b83	0.034968864
237	0x3caccf1e	0.021094855
238	0x3d65e32e	0.05612486
239	0x3d443dbb	0.047910433
240	0xbd9dc388	-0.0770331
241	0xbdc9fcae	-0.09862648
242	0xbd792a94	-0.06083162
243	0xbd3b0a93	-0.04566438
244	0xbb4c4765	-0.0031170484
245	0xbd56a6d0	-0.05240518
246	0xbd61b90c	-0.055108115
247	0xbdba2a7c	-0.090901345
248	0x3e43d542	0.1912432
249	0x3dfd0e9b	0.123563014
250	0xbd2636cc	-0.040579602
251	0xbaddc0f2	-0.0016918464
252	0xbd7800c5	-0.06054761
253	0x3d01a042	0.031646974
254	0xbc60cad2	-0.013720231
255	0x3e0533f0	0.13008094
