weights/tisTCN.pt (torch_old, 153327 bytes, 63 tensors)

tcn.network.0.conv1.bias f4 [25]
000000 30 b8 6b bd d1 77 4f 3d 8b c7 56 3d 41 18 4e 3d
       -0.0575487 0.050651375 0.052436393 0.0503161
000010 ec e7 28 bd 99 41 57 bd e0 7f 8e bd ce da a3 3c
       -0.041236803 -0.052552793 -0.06957984 0.020001795
000020 8d 39 50 3d 4b bd a2 3d c5 10 f3 bd db 62 49 3d
       0.050836135 0.07946261 -0.11868433 0.04916654
000030 b1 21 cf 3d f8 82 1d 3c 5f 27 f3 3d 52 96 f6 bc
       0.10113848 0.009613745 0.11872744 -0.030100975
000040 8c b9 37 be ba bd c1 3d b4 59 25 bc 2b 5e 91 bd
       -0.17941874 0.094600156 -0.010092188 -0.07098039
000050 0f 37 0d be 5d 81 25 be 8d 4f 53 3e 20 cd 69 be
       -0.13790534 -0.1616263 0.20635815 -0.22832155
000060 0d 8a 8e bd
       -0.06959925

tcn.network.0.conv1.weight_g f4 [25, 1, 1]
000000 d6 81 33 3f 03 f5 41 3f 04 9f 69 3f c4 c3 5b 3f
       0.7011999 0.75764483 0.91258264 0.8584559
000010 37 de 40 3f bd 68 33 3f b6 1b 84 3f 3c 77 18 3f
       0.7533907 0.7008169 1.0320957 0.5955694
000020 e6 7c 6c 3f 66 9e 34 3f c3 d0 30 3f ef 70 6c 3f
       0.9237808 0.70554197 0.69068545 0.92359823
000030 f8 d4 34 3f 39 e1 16 3f 06 62 5e 3f d8 e6 4b 3f
       0.70637465 0.5893741 0.8686832 0.79649115
000040 dc db 89 3f 20 53 4b 3f 7f 02 5d 3f 0d c0 4f 3f
       1.0770221 0.79423714 0.86331934 0.8115242
000050 9f f9 61 3f f3 07 6b 3f 9d ee 39 3f 54 10 8d 3f
       0.88271517 0.91809005 0.7262972 1.1020608
000060 45 8e 72 3f
       0.94748336

tcn.network.0.conv1.weight_v f4 [25, 4, 6]
000000 44 b2 f2 3c f3 f4 b5 bd ae 3d 81 3d 1f 05 43 3e
       0.02962602 -0.08884611 0.063105926 0.19044922
000010 d0 0d 65 be 04 f2 01 3e 93 a1 88 3d c7 db c3 bd
       -0.2236855 0.12689978 0.06671443 -0.095634036
000020 ad bf fb 3c 56 be 95 3e 40 47 89 bd 90 e0 1d b9
       0.030731047 0.29246777 -0.06703043 -0.00015056343
000030 20 f9 8a bc 31 4f d1 3c b3 9b 90 bd a0 bc 44 bd
       -0.016964495 0.025550457 -0.07060947 -0.04803145
000040 78 49 25 3e 0a d7 d3 3d 5c 7d 45 3d 90 d3 96 bd
       0.16141307 0.1034375 0.048215255 -0.07364571
000050 9f d1 cb 3c e6 b3 4c be 59 20 b7 3d 1a a3 fe ba
       0.024880229 -0.19990501 0.08941717 -0.001942727
000060 59 57 b8 bd b0 0d b7 bd 26 a5 c6 bd 8d 64 47 be
       -0.09001035 -0.089381576 -0.09699468 -0.19471951
000070 f4 9e a5 bd a5 dc a8 3c 87 e0 e1 bd 38 cd 2b bd
       -0.080869585 0.020613024 -0.11029153 -0.04194376
000080 7d 45 a9 bd 75 d9 0e bd 3c 82 0e be 2b e6 3a bd
       -0.08265207 -0.034875352 -0.13916868 -0.04562966
000090 fd cc b7 bc 77 9e 28 3d 8a ab 9e 3e 4d 1c 95 3e
       -0.022436613 0.04116675 0.3099025 0.29123154
0000a0 cf 97 24 3e d0 25 42 bb 65 bf 8b bc 12 2b 22 be
       0.16073535 -0.0029624589 -0.017059037 -0.15836743
0000b0 a7 2f b2 bc 3e f0 f8 3c aa 87 a1 bd 78 48 7d bd
       -0.021751238 0.030387994 -0.07887204 -0.06183669
0000c0 f2 99 6a bc 1e b9 65 bd 21 ce b9 3c f9 ca ce bb
       -0.01431893 -0.056084745 0.022681298 -0.0063108173
0000d0 c7 8e a7 bc cf e5 a1 bd 8b 42 af 3b 81 68 b7 bd
       -0.020453824 -0.07905161 0.0053485087 -0.089554794
0000e0 c2 4d 98 bc 98 ed 24 be c8 c0 3d be 97 1e 54 3e
       -0.018591765 -0.1610626 -0.18530571 0.20714794
0000f0 13 e5 b2 bb f3 19 a6 bd b0 91 a1 3c 66 46 86 3e
       -0.0054594367 -0.08110418 0.01972279 0.26225585
000100 cd 1d 93 3e 20 c6 b2 bc 06 0a 5e bb a9 d2 9d bd
       0.28733674 -0.021822989 -0.0033880486 -0.07706196
000110 f0 49 ff bd be c0 1f be 05 16 12 be 47 8c 5d be
       -0.12465274 -0.15600869 -0.14266212 -0.21635543
000120 6f 37 b4 be 08 f5 7e be 27 bf 3c be 71 2c bf bd
       -0.35198542 -0.2489816 -0.18432294 -0.093346484
000130 9c 82 f7 bc 37 ae 31 bd 64 46 e5 bc 87 03 e4 3d
       -0.030213647 -0.043379035 -0.027987666 0.11133485
000140 6b 30 8f 3d fa 5f 0a 3e 21 2d 11 be 9b eb 3b 3d
       0.06991657 0.13513175 -0.14177372 0.045878988
000150 f3 af 33 bd f8 d5 b8 3c c3 05 1c 3e d6 01 82 3c
       -0.04386897 0.022562966 0.15236573 0.015870016
000160 9b ca 98 bd f4 5c 53 bd 3b bb cd 3d 74 e0 84 3d
       -0.07460519 -0.05160232 0.10045477 0.064881235
000170 8f 91 66 3e b7 42 b1 3c 9c 38 aa bd 5b 54 c2 3d
       0.22516464 0.021638257 -0.08311579 0.09488746
000180 01 fb f2 3c 31 af 15 bd 07 8c 2d 3d ba 96 60 3c
       0.029660704 -0.03654403 0.04236987 0.013707811
000190 91 89 8d 3d 39 07 38 bd 7f f9 e6 3c 3a f0 7a bd
       0.06911004 -0.044928763 0.02819514 -0.061264254
0001a0 80 00 a3 3a f7 17 ae bd 90 f9 0c 3e e5 74 f0 bd
       0.0012436062 -0.08500665 0.13767076 -0.11741046
0001b0 72 85 bc bd 0b 64 55 3d 22 f4 0e be ca 00 30 3e
       -0.0920514 0.05209736 -0.13960317 0.17187801
0001c0 26 de 7a be 72 77 a5 3e bc f2 c1 bc e1 7b 1d 3d
       -0.24498805 0.32317692 -0.023675315 0.03844822
0001d0 81 68 1c 3c 7b f6 70 bc 2e de f7 bd 9e f7 7f be
       0.0095464 -0.014707203 -0.12102924 -0.24996802
0001e0 a1 95 6e bd 0e c8 39 3c 0c 3a 0f bd 95 e9 d0 bd
       -0.058248166 0.011339201 -0.034967467 -0.10200802
0001f0 e7 c9 1a 3e 04 26 68 be 52 09 df bd 86 6e 6d 3d
       0.15116082 -0.22670752 -0.108904496 0.05796673
000200 48 71 57 3d 2f 5d ae 3d 08 31 00 be 40 72 0b 3d
       0.052598268 0.08513867 -0.12518704 0.034044504
000210 0a 15 e9 3c 73 be 50 3c 40 06 d9 bd b4 5b e3 bd
       0.028452415 0.012740719 -0.10596895 -0.11101475
000220 cd 79 56 3e d8 37 b3 3d 75 07 7c bd de 75 b4 bb
       0.20944901 0.08750886 -0.06153055 -0.005507215
000230 67 f0 85 3d a1 ec a1 3d 1f 0f 6b be 6f 51 58 3e
       0.06539994 0.079064615 -0.22954987 0.21124814
000240 38 97 18 bd 6c 9b 02 be 63 aa 20 bd 20 fe 0a 3e
       -0.03725359 -0.12754601 -0.039224993 0.13573503
000250 46 d1 94 3e 53 fe f7 bb c6 bd 74 bd d7 1c 0e 3d
       0.29065913 -0.0075681596 -0.059751295 0.034695473
000260 ca 2d 2b be 4b 6f 1f be 1b cb 39 be a5 98 29 3e
       -0.16716686 -0.15569799 -0.18143885 0.16562136
000270 4d fe c7 3c 27 6d 01 be a1 9d 40 3d 5c 24 31 3e
       0.024413252 -0.12639295 0.047025327 0.17299026
000280 aa 4a 09 bd 4e f8 d8 3c 89 dd 33 3d a7 f8 0b 3b
       -0.03351847 0.026485588 0.043912444 0.0021357925
000290 50 49 c1 3c c3 94 5f be fc 64 fa bd ef 74 9c be
       0.023594528 -0.21834092 -0.122262925 -0.30557963
0002a0 2c e0 e5 3c b1 a5 36 bd 83 30 a3 3d 97 23 e5 3b
       0.028060995 -0.04459161 0.07968237 0.006992768
0002b0 b6 d5 e7 3d 9e 7a a3 3d a1 7c 2c bd b4 60 2c 3d
       0.11320059 0.07982372 -0.042111043 0.04208441
0002c0 12 78 f9 bc 7f c5 59 be 9e 47 52 be 64 a5 60 be
       -0.030452762 -0.21266745 -0.20535132 -0.21938092
0002d0 51 db 97 3d e1 20 87 bd ad 3b 99 bd 98 9b 32 bd
       0.07414878 -0.06598068 -0.074820854 -0.043605417
0002e0 81 a3 73 bd ba ac e9 3d 24 81 cc 3d 1e 9c d0 3c
       -0.0594821 0.11409898 0.09985569 0.025465067
0002f0 e0 82 c0 3d aa af ab 3d 6c 6a 43 bb 3c 85 97 bc
       0.093999624 0.08383115 -0.002981807 -0.018496148
000300 42 de ec bc c3 07 17 3e 79 64 5a bd f3 22 c1 3d
       -0.028914575 0.14749055 -0.053318474 0.09430494
000310 90 ee 14 bd cc 24 33 bd 97 2f e5 bd b7 30 a8 be
       -0.036360323 -0.043736264 -0.11190718 -0.32849666
000320 e5 8a ef 3d cb e5 9f be e6 76 44 3d bc 87 83 bd
       0.11696414 -0.31230006 0.047964953 -0.06422374
000330 51 50 7a 3d 67 c9 ab 3d 9a 08 9a 3d 4c ce ae bd
       0.061111752 0.08388024 0.07521172 -0.08535442
000340 98 77 00 bd 02 12 0c bd 58 ca 1d be 95 3a cf bd
       -0.031364053 -0.03419686 -0.1540922 -0.101185955
000350 9f d6 85 be ea 55 28 3e 76 65 3b 3c 67 2a 4d bd
       -0.26140305 0.16439024 0.011437764 -0.050089266
000360 db b7 88 bc a5 f6 c9 3d eb d4 d9 3c 0f 4c b1 3d
       -0.016689232 0.09861497 0.026590785 0.08657085
000370 f7 2a 3e 3e cf a8 a5 3b c1 78 36 3b 8b b5 c1 3d
       0.18571077 0.005055524 0.002784297 0.09458455
000380 83 64 5e 3d a0 d0 11 bc ee 6d 03 be 09 fe e7 3c
       0.054295074 -0.008899838 -0.12834904 0.028319376
000390 fb fc 17 bc 90 07 d8 bd b2 7b 85 be 74 29 9e bd
       -0.009276624 -0.105483174 -0.26070935 -0.0772275
0003a0 29 7a b7 3d 5d 6f 5d bd f4 d4 ad bc 95 d5 ce bd
       0.08958847 -0.054061282 -0.021219708 -0.10099331
0003b0 6e 82 d1 3d ed 58 b9 bb d2 60 47 3c f0 1b 64 bd
       0.102299556 -0.0056563527 0.01216908 -0.055690706
0003c0 b6 00 3d be 8f 2d 80 bd 87 35 73 3d 2d bd 2e 3d
       -0.18457302 -0.062586896 0.05937722 0.04266088
0003d0 02 d9 0c 3e 21 5a 2f 3d 68 4b 22 be 0e e0 94 bd
       0.13754657 0.042810563 -0.15849078 -0.072692975
0003e0 0e e2 9d 3c 32 0c ab 3d 4d 25 33 3d bd 39 10 3d
       0.01927283 0.083519354 0.043736745 0.035211314
0003f0 74 94 07 3e b4 f2 88 3e 95 72 e3 bd 17 55 ee bd
       0.13240224 0.26747668 -0.11105839 -0.11637323

tcn.network.0.conv2.bias f4 [25]
000000 09 60 8f bd 66 c4 a7 3b eb ef 8f bc a9 ce b3 3d
       -0.07000739 0.005119848 -0.017570456 0.08779652
000010 3e 75 ae 3d a5 b5 e1 bc 99 f0 a9 3d f5 32 00 3d
       0.08518456 -0.027552435 0.082978435 0.031298596
000020 ce 5d d6 bc c1 8d bb bd ca f4 8c bc 4e 0a 18 3d
       -0.026167776 -0.09157897 -0.017206568 0.037119202
000030 05 25 1e 3d 8a 2e ea 3c 6b 19 ff 3c 1c 17 57 bd
       0.038609523 0.028586645 0.03114005 -0.052512273
000040 77 69 20 3b d8 e3 30 bc b1 5b 9e 3d 25 09 1e 3e
       0.0024476924 -0.01079651 0.077323325 0.15433176
000050 91 80 17 bd 29 b9 5f bd 7a 71 a5 3d 20 4f ad 3d
       -0.036987845 -0.05461994 0.080782846 0.084623575
000060 86 a8 9f ba
       -0.0012180961

tcn.network.0.conv2.weight_g f4 [25, 1, 1]
000000 ce 6a 07 3f 29 e8 88 3f 3e d2 29 3f 1d e3 50 3f
       0.52897346 1.069585 0.6633643 0.8159655
000010 83 44 95 3f c0 e7 85 3f 38 b0 7b 3f d6 17 37 3f
       1.1661533 1.046135 0.98315763 0.71520746
000020 24 0c 7f 3f 5e f7 14 3f 56 3d 50 3f 29 e5 63 3f
       0.996279 0.5818995 0.8134359 0.89021546
000030 1e b6 a1 3f 5c 06 18 3f 1f 12 69 3f 88 4b 57 3f
       1.2633703 0.59384704 0.91043276 0.84099627
000040 58 5c 23 3f 34 c0 30 3f 90 e6 4b 3f bd a7 39 3f
       0.6381278 0.6904328 0.79648685 0.72521573
000050 0d 85 2b 3f 7b 5c 0e 3f cc 22 cf 3f 85 b1 d7 3f
       0.66999894 0.55609864 1.6182494 1.685105
000060 c5 93 67 3f
       0.90459853

tcn.network.0.conv2.weight_v f4 [25, 25, 6]
000000 3b 36 64 3c 8d 42 a3 3c 85 1d 84 3d 57 cc 3b bd
       0.013928945 0.019929195 0.06450943 -0.04584917
000010 35 de 02 bd 14 de 04 3d 29 28 29 bc 40 a5 81 bd
       -0.031950194 0.032438353 -0.010324516 -0.06330347
000020 8a d6 4c 3d 24 07 5d 3d a8 f6 54 3d 4f 7c 55 bc
       0.050009288 0.053961888 0.051993042 -0.013030126
000030 60 5e 94 bd 33 ab 08 3d 0b d5 02 bd 59 42 9c bd
       -0.07244563 0.033366393 -0.031941455 -0.07629842
000040 74 c7 fc bc e9 c3 59 bc 79 cd 8b 3d 22 0f 08 bd
       -0.030856825 -0.0132913375 0.068263 -0.033217557
000050 d1 95 38 3d b9 06 6e 3d f7 e7 1d bd 3c d2 e5 bb
       0.04506475 0.05811188 -0.038551297 -0.0070135873
000060 95 e2 17 bd 1e fe 28 bd ec 90 d1 bc 2b b7 0b bd
       -0.03708132 -0.04125797 -0.0255818 -0.03411023
000070 5a 5c 48 3d 3f 17 66 3d 80 c0 a8 bc 81 a0 60 3d
       0.0489162 0.056174513 -0.020599604 0.05484057
000080 c7 d0 7e bd 71 5b 27 bd 5d 11 fb 3c de b9 13 bc
       -0.062210824 -0.04085869 0.030647928 -0.009016482
000090 4d 48 6a bd 46 e5 42 ba b2 7b 78 bd 8d d5 51 3d
       -0.057197858 -0.0007434677 -0.06066484 0.05122905
0000a0 9e 94 a3 bc 6f 78 b1 bc 41 40 8a bd f1 36 ed bb
       -0.019968327 -0.021663873 -0.06750537 -0.0072392155
0000b0 14 9c 9a bc c0 a4 1e 3d 50 3f 5d bd cb 47 88 3b
       -0.018873252 0.038731337 -0.054015458 0.004158949
0000c0 6b d9 9e 3c 1a d4 b4 bc d8 50 98 3d b7 89 05 bd
       0.019390782 -0.022073794 0.07437295 -0.03260204
0000d0 70 e7 8d bb 48 de e7 3c 2c fb b4 3c 42 cf 28 3c
       -0.004330568 0.028304234 0.022092424 0.01030332
0000e0 39 82 0f bd 8f 33 95 3d 59 a3 90 bd 50 05 c0 3b
       -0.0350363 0.07285225 -0.07062406 0.0058600083
0000f0 e4 ff ee bc 9e ab 77 bc 97 0c 56 3d f9 11 93 3d
       -0.029174753 -0.0151166 0.0522581 0.071811624
000100 02 fe 10 3c ba c2 83 bb f4 23 1f 3b 94 da 4c bc
       0.008849623 -0.004021016 0.0024282904 -0.012503285
000110 35 4c 2f bc 39 af 98 3b ef 4f 3b 3d 43 91 9d 3d
       -0.0106993215 0.00465956 0.045730527 0.07693722
000120 52 a9 67 bc b2 dc 10 3d 49 4b 89 bd 1f 5b 46 bd
       -0.01413949 0.03536672 -0.06703813 -0.048426744
000130 76 43 97 bc 0f 17 8f 3d b2 7b 81 3d 6a 1c 8e 3b
       -0.018464785 0.0698682 0.06322421 0.0043368833
000140 48 df 94 bd 99 f4 61 bd 38 98 05 3d 89 58 ea bc
       -0.0726915 -0.055164907 0.03261587 -0.02860667
000150 4d 75 ea 3c a0 5d 27 3c cd e2 45 bd ac ac 60 bc
       0.028620386 0.010215193 -0.048311997 -0.013713043
000160 e8 12 d8 ba 22 4c cd bb c6 92 8a 3d 7e 1d 25 bd
       -0.0016485127 -0.0062651793 0.06766276 -0.04031133
000170 eb bd 6b bd 30 95 3c 3d 7f fb ee 39 e9 a1 17 bd
       -0.057554167 0.046040714 0.00045582277 -0.037019644
000180 46 72 01 bd 81 1b 4f bd 09 42 c1 bc 39 80 51 3d
       -0.03160312 -0.05056334 -0.023591058 0.051147673
000190 06 ad 3e bd 9e ac e5 bb 24 e8 82 3d 43 69 1a bd
       -0.046551727 -0.007009103 0.063919336 -0.03769804
0001a0 fb 4d 2f bd 79 7f 75 bc a6 76 71 bd 39 6c 11 3d
       -0.042798977 -0.014984005 -0.058951043 0.0355036
0001b0 38 8c 88 bb c6 60 94 bd 47 82 e6 3c 4e af cc 3c
       -0.004167106 -0.072450206 0.028138293 0.024985936
0001c0 2e 67 d4 bc b5 7f 6d 3b 8c e8 92 3d 1b a4 b2 3c
       -0.025928106 0.003623945 0.07173261 0.021806767
0001d0 46 50 b5 bb 30 73 1e 3d 46 f5 03 3d 0a 3e 9d 3c
       -0.005533251 0.03868407 0.032216333 0.019194622
0001e0 ac 7b 11 bd 60 4e 6e 3d 9c e8 2b 3d eb de 62 bd
       -0.035518333 0.058180213 0.04196988 -0.055388372
0001f0 55 a4 42 3d e2 cb 5c bd 25 e2 a3 ba 63 11 9e bb
       0.04752 -0.053905375 -0.0012503309 -0.00482385
000200 21 b1 72 bd ae 21 b3 bc 00 b6 8a 3d 70 b5 11 bd
       -0.059250955 -0.021866646 0.06772995 -0.035573423
000210 82 4c c0 bc 32 a0 6f bd f7 83 9b 3d 1a d2 c3 bc
       -0.023473982 -0.058502384 0.0759353 -0.023903895
000220 57 6f 85 bd 8e f5 99 3d 14 4a 30 bd b7 76 8f bd
       -0.06515377 0.07517539 -0.043039396 -0.07005065
000230 2e e4 02 bc 6c 4d 8f bd fd 92 34 bd f2 cc 98 bd
       -0.007988973 -0.06997189 -0.04408549 -0.07460965
000240 c2 e4 01 3d 80 f4 b8 bc d1 36 81 3c 5b a4 94 bd
       0.0317123 -0.022577524 0.015773209 -0.07257911
000250 ee 79 a0 bd 75 1b 2c bd 5d 4c 5d 3b e9 39 32 3d
       -0.07835756 -0.042018373 0.003376744 0.04351226
000260 56 92 a7 3c 67 97 e6 3c 28 81 94 bc 83 fd 0c bd
       0.02045552 0.028148366 -0.018127993 -0.034421455
000270 40 d5 98 bb 1d aa 5c 3d 18 7c 60 bd 5e 38 1b 3d
       -0.0046640933 0.05387317 -0.054805845 0.037895553
000280 08 a5 e4 bc af 7d b8 bd b3 61 c4 3c ee ad df 3d
       -0.027910724 -0.09008347 0.023972368 0.10921846
000290 d3 2d 59 bc 7a 47 db 3c 91 9c dc 3c 8c b4 e4 bc
       -0.013255554 0.026767481 0.026930125 -0.027918123
0002a0 8f 83 f8 bc 0e 26 b0 bc cb c6 22 bd 27 4f e2 3c
       -0.03033617 -0.02150252 -0.039740365 0.027625633
0002b0 83 50 24 bd 7c 56 61 bd 92 92 12 bd 10 95 d1 3c
       -0.040115844 -0.05501412 -0.03578431 0.025583774
0002c0 1b 97 90 bd be 16 62 3d b2 43 44 3b 55 6e ab bc
       -0.07060071 0.05519747 0.0029947576 -0.020926634
0002d0 e8 90 57 bd 08 5f f1 3c 2a a6 9b 3d ed bd 48 bd
       -0.052628428 0.02946426 0.07600053 -0.049009252
0002e0 4e df 1c bc 14 2b 26 bd 80 c1 9c 3b 03 8a 9d 3c
       -0.009574724 -0.040568426 0.004783809 0.019230848
0002f0 b9 23 34 3c d6 a0 0a 3d 10 75 83 3d c8 ef 9c bd
       0.010994845 0.03384479 0.06418812 -0.07662922
000300 63 80 8f 3c 32 a7 82 3c 30 dd 88 3d c7 1a b9 3d
       0.017517274 0.015948866 0.06682813 0.090383105
000310 ca 2c 06 bd a8 6b 32 3c a9 8e b2 bd e0 10 44 3d
       -0.032757558 0.010889925 -0.087186165 0.047867656
000320 6b 98 29 3d 35 8e 37 bd af 55 54 3d ed 24 93 3c
       0.041405123 -0.044813354 0.051839527 0.017961944
000330 44 56 59 3d af 39 22 bd d4 a4 ff 3c a4 d5 5e b9
       0.053060785 -0.039605793 0.031206526 -0.00021251157
000340 de 0d 0a 3d 14 d4 11 bd b5 6f 92 3c 55 5d e4 3b
       0.03370463 -0.035602644 0.017875532 0.006969134
000350 f3 86 05 3d a8 5d 2a 3c 6c 52 5a bd 16 ed f7 bc
       0.0325994 0.010398306 -0.05330126 -0.030264419
000360 32 6a f3 bc 3f 1e ce bb 55 0a e0 bb 9f 80 be 3d
       -0.029713724 -0.0062902267 -0.006837169 0.09301876
000370 5d 2a 81 bc de 2a 8a 3c b0 ad 13 3c b9 a3 22 bd
       -0.01576727 0.016866144 0.009013578 -0.03970692
000380 1c 50 06 3d 87 73 89 bd 6a 4a d0 bb 58 d2 3b bd
       0.032791242 -0.06711488 -0.006356527 -0.045854896
000390 d4 08 a8 bc a7 e1 85 bc cb dd 83 3d 53 bd 0a be
       -0.020512022 -0.016342951 0.06438788 -0.13548784
0003a0 63 9f fa bb 45 2e b6 3c e7 dd 6e bc 0b 81 19 bd
       -0.007648395 0.02223886 -0.014579273 -0.03747658
0003b0 aa c1 f1 bc c3 2f 59 3d b2 f0 8d bd e1 c6 8e bd
       -0.029511292 0.053024065 -0.069306746 -0.06971527
0003c0 29 ce e3 3c 82 32 51 3d e7 55 67 3c 8c a6 82 bc
       0.027808266 0.05107356 0.014119602 -0.015948556
0003d0 d2 aa 8b 3d 2f 57 10 bc 3f 91 23 bd 53 1b e3 bc
       0.06819691 -0.008809849 -0.03993344 -0.02772299
0003e0 a6 0c 90 bd 12 79 50 3c 5e 41 d2 bd 82 fa 94 bd
       -0.070336625 0.012724178 -0.10266374 -0.07274343
0003f0 23 35 d5 3c c0 09 2a bd 9a 91 ff 3b f7 2e 85 3d
       0.026026314 -0.041513205 0.0077993395 0.065030985

tcn.network.0.net.0.bias f4 [25]
000000 30 b8 6b bd d1 77 4f 3d 8b c7 56 3d 41 18 4e 3d
       -0.0575487 0.050651375 0.052436393 0.0503161
000010 ec e7 28 bd 99 41 57 bd e0 7f 8e bd ce da a3 3c
       -0.041236803 -0.052552793 -0.06957984 0.020001795
000020 8d 39 50 3d 4b bd a2 3d c5 10 f3 bd db 62 49 3d
       0.050836135 0.07946261 -0.11868433 0.04916654
000030 b1 21 cf 3d f8 82 1d 3c 5f 27 f3 3d 52 96 f6 bc
       0.10113848 0.009613745 0.11872744 -0.030100975
000040 8c b9 37 be ba bd c1 3d b4 59 25 bc 2b 5e 91 bd
       -0.17941874 0.094600156 -0.010092188 -0.07098039
000050 0f 37 0d be 5d 81 25 be 8d 4f 53 3e 20 cd 69 be
       -0.13790534 -0.1616263 0.20635815 -0.22832155
000060 0d 8a 8e bd
       -0.06959925

tcn.network.0.net.0.weight_g f4 [25, 1, 1]
000000 d6 81 33 3f 03 f5 41 3f 04 9f 69 3f c4 c3 5b 3f
       0.7011999 0.75764483 0.91258264 0.8584559
000010 37 de 40 3f bd 68 33 3f b6 1b 84 3f 3c 77 18 3f
       0.7533907 0.7008169 1.0320957 0.5955694
000020 e6 7c 6c 3f 66 9e 34 3f c3 d0 30 3f ef 70 6c 3f
       0.9237808 0.70554197 0.69068545 0.92359823
000030 f8 d4 34 3f 39 e1 16 3f 06 62 5e 3f d8 e6 4b 3f
       0.70637465 0.5893741 0.8686832 0.79649115
000040 dc db 89 3f 20 53 4b 3f 7f 02 5d 3f 0d c0 4f 3f
       1.0770221 0.79423714 0.86331934 0.8115242
000050 9f f9 61 3f f3 07 6b 3f 9d ee 39 3f 54 10 8d 3f
       0.88271517 0.91809005 0.7262972 1.1020608
000060 45 8e 72 3f
       0.94748336

tcn.network.0.net.0.weight_v f4 [25, 4, 6]
000000 44 b2 f2 3c f3 f4 b5 bd ae 3d 81 3d 1f 05 43 3e
       0.02962602 -0.08884611 0.063105926 0.19044922
000010 d0 0d 65 be 04 f2 01 3e 93 a1 88 3d c7 db c3 bd
       -0.2236855 0.12689978 0.06671443 -0.095634036
000020 ad bf fb 3c 56 be 95 3e 40 47 89 bd 90 e0 1d b9
       0.030731047 0.29246777 -0.06703043 -0.00015056343
000030 20 f9 8a bc 31 4f d1 3c b3 9b 90 bd a0 bc 44 bd
       -0.016964495 0.025550457 -0.07060947 -0.04803145
000040 78 49 25 3e 0a d7 d3 3d 5c 7d 45 3d 90 d3 96 bd
       0.16141307 0.1034375 0.048215255 -0.07364571
000050 9f d1 cb 3c e6 b3 4c be 59 20 b7 3d 1a a3 fe ba
       0.024880229 -0.19990501 0.08941717 -0.001942727
000060 59 57 b8 bd b0 0d b7 bd 26 a5 c6 bd 8d 64 47 be
       -0.09001035 -0.089381576 -0.09699468 -0.19471951
000070 f4 9e a5 bd a5 dc a8 3c 87 e0 e1 bd 38 cd 2b bd
       -0.080869585 0.020613024 -0.11029153 -0.04194376
000080 7d 45 a9 bd 75 d9 0e bd 3c 82 0e be 2b e6 3a bd
       -0.08265207 -0.034875352 -0.13916868 -0.04562966
000090 fd cc b7 bc 77 9e 28 3d 8a ab 9e 3e 4d 1c 95 3e
       -0.022436613 0.04116675 0.3099025 0.29123154
0000a0 cf 97 24 3e d0 25 42 bb 65 bf 8b bc 12 2b 22 be
       0.16073535 -0.0029624589 -0.017059037 -0.15836743
0000b0 a7 2f b2 bc 3e f0 f8 3c aa 87 a1 bd 78 48 7d bd
       -0.021751238 0.030387994 -0.07887204 -0.06183669
0000c0 f2 99 6a bc 1e b9 65 bd 21 ce b9 3c f9 ca ce bb
       -0.01431893 -0.056084745 0.022681298 -0.0063108173
0000d0 c7 8e a7 bc cf e5 a1 bd 8b 42 af 3b 81 68 b7 bd
       -0.020453824 -0.07905161 0.0053485087 -0.089554794
0000e0 c2 4d 98 bc 98 ed 24 be c8 c0 3d be 97 1e 54 3e
       -0.018591765 -0.1610626 -0.18530571 0.20714794
0000f0 13 e5 b2 bb f3 19 a6 bd b0 91 a1 3c 66 46 86 3e
       -0.0054594367 -0.08110418 0.01972279 0.26225585
000100 cd 1d 93 3e 20 c6 b2 bc 06 0a 5e bb a9 d2 9d bd
       0.28733674 -0.021822989 -0.0033880486 -0.07706196
000110 f0 49 ff bd be c0 1f be 05 16 12 be 47 8c 5d be
       -0.12465274 -0.15600869 -0.14266212 -0.21635543
000120 6f 37 b4 be 08 f5 7e be 27 bf 3c be 71 2c bf bd
       -0.35198542 -0.2489816 -0.18432294 -0.093346484
000130 9c 82 f7 bc 37 ae 31 bd 64 46 e5 bc 87 03 e4 3d
       -0.030213647 -0.043379035 -0.027987666 0.11133485
000140 6b 30 8f 3d fa 5f 0a 3e 21 2d 11 be 9b eb 3b 3d
       0.06991657 0.13513175 -0.14177372 0.045878988
000150 f3 af 33 bd f8 d5 b8 3c c3 05 1c 3e d6 01 82 3c
       -0.04386897 0.022562966 0.15236573 0.015870016
000160 9b ca 98 bd f4 5c 53 bd 3b bb cd 3d 74 e0 84 3d
       -0.07460519 -0.05160232 0.10045477 0.064881235
000170 8f 91 66 3e b7 42 b1 3c 9c 38 aa bd 5b 54 c2 3d
       0.22516464 0.021638257 -0.08311579 0.09488746
000180 01 fb f2 3c 31 af 15 bd 07 8c 2d 3d ba 96 60 3c
       0.029660704 -0.03654403 0.04236987 0.013707811
000190 91 89 8d 3d 39 07 38 bd 7f f9 e6 3c 3a f0 7a bd
       0.06911004 -0.044928763 0.02819514 -0.061264254
0001a0 80 00 a3 3a f7 17 ae bd 90 f9 0c 3e e5 74 f0 bd
       0.0012436062 -0.08500665 0.13767076 -0.11741046
0001b0 72 85 bc bd 0b 64 55 3d 22 f4 0e be ca 00 30 3e
       -0.0920514 0.05209736 -0.13960317 0.17187801
0001c0 26 de 7a be 72 77 a5 3e bc f2 c1 bc e1 7b 1d 3d
       -0.24498805 0.32317692 -0.023675315 0.03844822
0001d0 81 68 1c 3c 7b f6 70 bc 2e de f7 bd 9e f7 7f be
       0.0095464 -0.014707203 -0.12102924 -0.24996802
0001e0 a1 95 6e bd 0e c8 39 3c 0c 3a 0f bd 95 e9 d0 bd
       -0.058248166 0.011339201 -0.034967467 -0.10200802
0001f0 e7 c9 1a 3e 04 26 68 be 52 09 df bd 86 6e 6d 3d
       0.15116082 -0.22670752 -0.108904496 0.05796673
000200 48 71 57 3d 2f 5d ae 3d 08 31 00 be 40 72 0b 3d
       0.052598268 0.08513867 -0.12518704 0.034044504
000210 0a 15 e9 3c 73 be 50 3c 40 06 d9 bd b4 5b e3 bd
       0.028452415 0.012740719 -0.10596895 -0.11101475
000220 cd 79 56 3e d8 37 b3 3d 75 07 7c bd de 75 b4 bb
       0.20944901 0.08750886 -0.06153055 -0.005507215
000230 67 f0 85 3d a1 ec a1 3d 1f 0f 6b be 6f 51 58 3e
       0.06539994 0.079064615 -0.22954987 0.21124814
000240 38 97 18 bd 6c 9b 02 be 63 aa 20 bd 20 fe 0a 3e
       -0.03725359 -0.12754601 -0.039224993 0.13573503
000250 46 d1 94 3e 53 fe f7 bb c6 bd 74 bd d7 1c 0e 3d
       0.29065913 -0.0075681596 -0.059751295 0.034695473
000260 ca 2d 2b be 4b 6f 1f be 1b cb 39 be a5 98 29 3e
       -0.16716686 -0.15569799 -0.18143885 0.16562136
000270 4d fe c7 3c 27 6d 01 be a1 9d 40 3d 5c 24 31 3e
       0.024413252 -0.12639295 0.047025327 0.17299026
000280 aa 4a 09 bd 4e f8 d8 3c 89 dd 33 3d a7 f8 0b 3b
       -0.03351847 0.026485588 0.043912444 0.0021357925
000290 50 49 c1 3c c3 94 5f be fc 64 fa bd ef 74 9c be
       0.023594528 -0.21834092 -0.122262925 -0.30557963
0002a0 2c e0 e5 3c b1 a5 36 bd 83 30 a3 3d 97 23 e5 3b
       0.028060995 -0.04459161 0.07968237 0.006992768
0002b0 b6 d5 e7 3d 9e 7a a3 3d a1 7c 2c bd b4 60 2c 3d
       0.11320059 0.07982372 -0.042111043 0.04208441
0002c0 12 78 f9 bc 7f c5 59 be 9e 47 52 be 64 a5 60 be
       -0.030452762 -0.21266745 -0.20535132 -0.21938092
0002d0 51 db 97 3d e1 20 87 bd ad 3b 99 bd 98 9b 32 bd
       0.07414878 -0.06598068 -0.074820854 -0.043605417
0002e0 81 a3 73 bd ba ac e9 3d 24 81 cc 3d 1e 9c d0 3c
       -0.0594821 0.11409898 0.09985569 0.025465067
0002f0 e0 82 c0 3d aa af ab 3d 6c 6a 43 bb 3c 85 97 bc
       0.093999624 0.08383115 -0.002981807 -0.018496148
000300 42 de ec bc c3 07 17 3e 79 64 5a bd f3 22 c1 3d
       -0.028914575 0.14749055 -0.053318474 0.09430494
000310 90 ee 14 bd cc 24 33 bd 97 2f e5 bd b7 30 a8 be
       -0.036360323 -0.043736264 -0.11190718 -0.32849666
000320 e5 8a ef 3d cb e5 9f be e6 76 44 3d bc 87 83 bd
       0.11696414 -0.31230006 0.047964953 -0.06422374
000330 51 50 7a 3d 67 c9 ab 3d 9a 08 9a 3d 4c ce ae bd
       0.061111752 0.08388024 0.07521172 -0.08535442
000340 98 77 00 bd 02 12 0c bd 58 ca 1d be 95 3a cf bd
       -0.031364053 -0.03419686 -0.1540922 -0.101185955
000350 9f d6 85 be ea 55 28 3e 76 65 3b 3c 67 2a 4d bd
       -0.26140305 0.16439024 0.011437764 -0.050089266
000360 db b7 88 bc a5 f6 c9 3d eb d4 d9 3c 0f 4c b1 3d
       -0.016689232 0.09861497 0.026590785 0.08657085
000370 f7 2a 3e 3e cf a8 a5 3b c1 78 36 3b 8b b5 c1 3d
       0.18571077 0.005055524 0.002784297 0.09458455
000380 83 64 5e 3d a0 d0 11 bc ee 6d 03 be 09 fe e7 3c
       0.054295074 -0.008899838 -0.12834904 0.028319376
000390 fb fc 17 bc 90 07 d8 bd b2 7b 85 be 74 29 9e bd
       -0.009276624 -0.105483174 -0.26070935 -0.0772275
0003a0 29 7a b7 3d 5d 6f 5d bd f4 d4 ad bc 95 d5 ce bd
       0.08958847 -0.054061282 -0.021219708 -0.10099331
0003b0 6e 82 d1 3d ed 58 b9 bb d2 60 47 3c f0 1b 64 bd
       0.102299556 -0.0056563527 0.01216908 -0.055690706
0003c0 b6 00 3d be 8f 2d 80 bd 87 35 73 3d 2d bd 2e 3d
       -0.18457302 -0.062586896 0.05937722 0.04266088
0003d0 02 d9 0c 3e 21 5a 2f 3d 68 4b 22 be 0e e0 94 bd
       0.13754657 0.042810563 -0.15849078 -0.072692975
0003e0 0e e2 9d 3c 32 0c ab 3d 4d 25 33 3d bd 39 10 3d
       0.01927283 0.083519354 0.043736745 0.035211314
0003f0 74 94 07 3e b4 f2 88 3e 95 72 e3 bd 17 55 ee bd
       0.13240224 0.26747668 -0.11105839 -0.11637323

tcn.network.0.net.4.bias f4 [25]
000000 09 60 8f bd 66 c4 a7 3b eb ef 8f bc a9 ce b3 3d
       -0.07000739 0.005119848 -0.017570456 0.08779652
000010 3e 75 ae 3d a5 b5 e1 bc 99 f0 a9 3d f5 32 00 3d
       0.08518456 -0.027552435 0.082978435 0.031298596
000020 ce 5d d6 bc c1 8d bb bd ca f4 8c bc 4e 0a 18 3d
       -0.026167776 -0.09157897 -0.017206568 0.037119202
000030 05 25 1e 3d 8a 2e ea 3c 6b 19 ff 3c 1c 17 57 bd
       0.038609523 0.028586645 0.03114005 -0.052512273
000040 77 69 20 3b d8 e3 30 bc b1 5b 9e 3d 25 09 1e 3e
       0.0024476924 -0.01079651 0.077323325 0.15433176
000050 91 80 17 bd 29 b9 5f bd 7a 71 a5 3d 20 4f ad 3d
       -0.036987845 -0.05461994 0.080782846 0.084623575
000060 86 a8 9f ba
       -0.0012180961

tcn.network.0.net.4.weight_g f4 [25, 1, 1]
000000 ce 6a 07 3f 29 e8 88 3f 3e d2 29 3f 1d e3 50 3f
       0.52897346 1.069585 0.6633643 0.8159655
000010 83 44 95 3f c0 e7 85 3f 38 b0 7b 3f d6 17 37 3f
       1.1661533 1.046135 0.98315763 0.71520746
000020 24 0c 7f 3f 5e f7 14 3f 56 3d 50 3f 29 e5 63 3f
       0.996279 0.5818995 0.8134359 0.89021546
000030 1e b6 a1 3f 5c 06 18 3f 1f 12 69 3f 88 4b 57 3f
       1.2633703 0.59384704 0.91043276 0.84099627
000040 58 5c 23 3f 34 c0 30 3f 90 e6 4b 3f bd a7 39 3f
       0.6381278 0.6904328 0.79648685 0.72521573
000050 0d 85 2b 3f 7b 5c 0e 3f cc 22 cf 3f 85 b1 d7 3f
       0.66999894 0.55609864 1.6182494 1.685105
000060 c5 93 67 3f
       0.90459853

tcn.network.0.net.4.weight_v f4 [25, 25, 6]
000000 3b 36 64 3c 8d 42 a3 3c 85 1d 84 3d 57 cc 3b bd
       0.013928945 0.019929195 0.06450943 -0.04584917
000010 35 de 02 bd 14 de 04 3d 29 28 29 bc 40 a5 81 bd
       -0.031950194 0.032438353 -0.010324516 -0.06330347
000020 8a d6 4c 3d 24 07 5d 3d a8 f6 54 3d 4f 7c 55 bc
       0.050009288 0.053961888 0.051993042 -0.013030126
000030 60 5e 94 bd 33 ab 08 3d 0b d5 02 bd 59 42 9c bd
       -0.07244563 0.033366393 -0.031941455 -0.07629842
000040 74 c7 fc bc e9 c3 59 bc 79 cd 8b 3d 22 0f 08 bd
       -0.030856825 -0.0132913375 0.068263 -0.033217557
000050 d1 95 38 3d b9 06 6e 3d f7 e7 1d bd 3c d2 e5 bb
       0.04506475 0.05811188 -0.038551297 -0.0070135873
000060 95 e2 17 bd 1e fe 28 bd ec 90 d1 bc 2b b7 0b bd
       -0.03708132 -0.04125797 -0.0255818 -0.03411023
000070 5a 5c 48 3d 3f 17 66 3d 80 c0 a8 bc 81 a0 60 3d
       0.0489162 0.056174513 -0.020599604 0.05484057
000080 c7 d0 7e bd 71 5b 27 bd 5d 11 fb 3c de b9 13 bc
       -0.062210824 -0.04085869 0.030647928 -0.009016482
000090 4d 48 6a bd 46 e5 42 ba b2 7b 78 bd 8d d5 51 3d
       -0.057197858 -0.0007434677 -0.06066484 0.05122905
0000a0 9e 94 a3 bc 6f 78 b1 bc 41 40 8a bd f1 36 ed bb
       -0.019968327 -0.021663873 -0.06750537 -0.0072392155
0000b0 14 9c 9a bc c0 a4 1e 3d 50 3f 5d bd cb 47 88 3b
       -0.018873252 0.038731337 -0.054015458 0.004158949
0000c0 6b d9 9e 3c 1a d4 b4 bc d8 50 98 3d b7 89 05 bd
       0.019390782 -0.022073794 0.07437295 -0.03260204
0000d0 70 e7 8d bb 48 de e7 3c 2c fb b4 3c 42 cf 28 3c
       -0.004330568 0.028304234 0.022092424 0.01030332
0000e0 39 82 0f bd 8f 33 95 3d 59 a3 90 bd 50 05 c0 3b
       -0.0350363 0.07285225 -0.07062406 0.0058600083
0000f0 e4 ff ee bc 9e ab 77 bc 97 0c 56 3d f9 11 93 3d
       -0.029174753 -0.0151166 0.0522581 0.071811624
000100 02 fe 10 3c ba c2 83 bb f4 23 1f 3b 94 da 4c bc
       0.008849623 -0.004021016 0.0024282904 -0.012503285
000110 35 4c 2f bc 39 af 98 3b ef 4f 3b 3d 43 91 9d 3d
       -0.0106993215 0.00465956 0.045730527 0.07693722
000120 52 a9 67 bc b2 dc 10 3d 49 4b 89 bd 1f 5b 46 bd
       -0.01413949 0.03536672 -0.06703813 -0.048426744
000130 76 43 97 bc 0f 17 8f 3d b2 7b 81 3d 6a 1c 8e 3b
       -0.018464785 0.0698682 0.06322421 0.0043368833
000140 48 df 94 bd 99 f4 61 bd 38 98 05 3d 89 58 ea bc
       -0.0726915 -0.055164907 0.03261587 -0.02860667
000150 4d 75 ea 3c a0 5d 27 3c cd e2 45 bd ac ac 60 bc
       0.028620386 0.010215193 -0.048311997 -0.013713043
000160 e8 12 d8 ba 22 4c cd bb c6 92 8a 3d 7e 1d 25 bd
       -0.0016485127 -0.0062651793 0.06766276 -0.04031133
000170 eb bd 6b bd 30 95 3c 3d 7f fb ee 39 e9 a1 17 bd
       -0.057554167 0.046040714 0.00045582277 -0.037019644
000180 46 72 01 bd 81 1b 4f bd 09 42 c1 bc 39 80 51 3d
       -0.03160312 -0.05056334 -0.023591058 0.051147673
000190 06 ad 3e bd 9e ac e5 bb 24 e8 82 3d 43 69 1a bd
       -0.046551727 -0.007009103 0.063919336 -0.03769804
0001a0 fb 4d 2f bd 79 7f 75 bc a6 76 71 bd 39 6c 11 3d
       -0.042798977 -0.014984005 -0.058951043 0.0355036
0001b0 38 8c 88 bb c6 60 94 bd 47 82 e6 3c 4e af cc 3c
       -0.004167106 -0.072450206 0.028138293 0.024985936
0001c0 2e 67 d4 bc b5 7f 6d 3b 8c e8 92 3d 1b a4 b2 3c
       -0.025928106 0.003623945 0.07173261 0.021806767
0001d0 46 50 b5 bb 30 73 1e 3d 46 f5 03 3d 0a 3e 9d 3c
       -0.005533251 0.03868407 0.032216333 0.019194622
0001e0 ac 7b 11 bd 60 4e 6e 3d 9c e8 2b 3d eb de 62 bd
       -0.035518333 0.058180213 0.04196988 -0.055388372
0001f0 55 a4 42 3d e2 cb 5c bd 25 e2 a3 ba 63 11 9e bb
       0.04752 -0.053905375 -0.0012503309 -0.00482385
000200 21 b1 72 bd ae 21 b3 bc 00 b6 8a 3d 70 b5 11 bd
       -0.059250955 -0.021866646 0.06772995 -0.035573423
000210 82 4c c0 bc 32 a0 6f bd f7 83 9b 3d 1a d2 c3 bc
       -0.023473982 -0.058502384 0.0759353 -0.023903895
000220 57 6f 85 bd 8e f5 99 3d 14 4a 30 bd b7 76 8f bd
       -0.06515377 0.07517539 -0.043039396 -0.07005065
000230 2e e4 02 bc 6c 4d 8f bd fd 92 34 bd f2 cc 98 bd
       -0.007988973 -0.06997189 -0.04408549 -0.07460965
000240 c2 e4 01 3d 80 f4 b8 bc d1 36 81 3c 5b a4 94 bd
       0.0317123 -0.022577524 0.015773209 -0.07257911
000250 ee 79 a0 bd 75 1b 2c bd 5d 4c 5d 3b e9 39 32 3d
       -0.07835756 -0.042018373 0.003376744 0.04351226
000260 56 92 a7 3c 67 97 e6 3c 28 81 94 bc 83 fd 0c bd
       0.02045552 0.028148366 -0.018127993 -0.034421455
000270 40 d5 98 bb 1d aa 5c 3d 18 7c 60 bd 5e 38 1b 3d
       -0.0046640933 0.05387317 -0.054805845 0.037895553
000280 08 a5 e4 bc af 7d b8 bd b3 61 c4 3c ee ad df 3d
       -0.027910724 -0.09008347 0.023972368 0.10921846
000290 d3 2d 59 bc 7a 47 db 3c 91 9c dc 3c 8c b4 e4 bc
       -0.013255554 0.026767481 0.026930125 -0.027918123
0002a0 8f 83 f8 bc 0e 26 b0 bc cb c6 22 bd 27 4f e2 3c
       -0.03033617 -0.02150252 -0.039740365 0.027625633
0002b0 83 50 24 bd 7c 56 61 bd 92 92 12 bd 10 95 d1 3c
       -0.040115844 -0.05501412 -0.03578431 0.025583774
0002c0 1b 97 90 bd be 16 62 3d b2 43 44 3b 55 6e ab bc
       -0.07060071 0.05519747 0.0029947576 -0.020926634
0002d0 e8 90 57 bd 08 5f f1 3c 2a a6 9b 3d ed bd 48 bd
       -0.052628428 0.02946426 0.07600053 -0.049009252
0002e0 4e df 1c bc 14 2b 26 bd 80 c1 9c 3b 03 8a 9d 3c
       -0.009574724 -0.040568426 0.004783809 0.019230848
0002f0 b9 23 34 3c d6 a0 0a 3d 10 75 83 3d c8 ef 9c bd
       0.010994845 0.03384479 0.06418812 -0.07662922
000300 63 80 8f 3c 32 a7 82 3c 30 dd 88 3d c7 1a b9 3d
       0.017517274 0.015948866 0.06682813 0.090383105
000310 ca 2c 06 bd a8 6b 32 3c a9 8e b2 bd e0 10 44 3d
       -0.032757558 0.010889925 -0.087186165 0.047867656
000320 6b 98 29 3d 35 8e 37 bd af 55 54 3d ed 24 93 3c
       0.041405123 -0.044813354 0.051839527 0.017961944
000330 44 56 59 3d af 39 22 bd d4 a4 ff 3c a4 d5 5e b9
       0.053060785 -0.039605793 0.031206526 -0.00021251157
000340 de 0d 0a 3d 14 d4 11 bd b5 6f 92 3c 55 5d e4 3b
       0.03370463 -0.035602644 0.017875532 0.006969134
000350 f3 86 05 3d a8 5d 2a 3c 6c 52 5a bd 16 ed f7 bc
       0.0325994 0.010398306 -0.05330126 -0.030264419
000360 32 6a f3 bc 3f 1e ce bb 55 0a e0 bb 9f 80 be 3d
       -0.029713724 -0.0062902267 -0.006837169 0.09301876
000370 5d 2a 81 bc de 2a 8a 3c b0 ad 13 3c b9 a3 22 bd
       -0.01576727 0.016866144 0.009013578 -0.03970692
000380 1c 50 06 3d 87 73 89 bd 6a 4a d0 bb 58 d2 3b bd
       0.032791242 -0.06711488 -0.006356527 -0.045854896
000390 d4 08 a8 bc a7 e1 85 bc cb dd 83 3d 53 bd 0a be
       -0.020512022 -0.016342951 0.06438788 -0.13548784
0003a0 63 9f fa bb 45 2e b6 3c e7 dd 6e bc 0b 81 19 bd
       -0.007648395 0.02223886 -0.014579273 -0.03747658
0003b0 aa c1 f1 bc c3 2f 59 3d b2 f0 8d bd e1 c6 8e bd
       -0.029511292 0.053024065 -0.069306746 -0.06971527
0003c0 29 ce e3 3c 82 32 51 3d e7 55 67 3c 8c a6 82 bc
       0.027808266 0.05107356 0.014119602 -0.015948556
0003d0 d2 aa 8b 3d 2f 57 10 bc 3f 91 23 bd 53 1b e3 bc
       0.06819691 -0.008809849 -0.03993344 -0.02772299
0003e0 a6 0c 90 bd 12 79 50 3c 5e 41 d2 bd 82 fa 94 bd
       -0.070336625 0.012724178 -0.10266374 -0.07274343
0003f0 23 35 d5 3c c0 09 2a bd 9a 91 ff 3b f7 2e 85 3d
       0.026026314 -0.041513205 0.0077993395 0.065030985

tcn.network.0.downsample.weight f4 [25, 4, 1]
000000 c4 35 b8 bb c5 43 4d bc 0b 0c 4a 3c bb 2d 18 bc
       -0.0056216437 -0.012528365 0.012331973 -0.009288247
000010 4e 78 33 bd 61 5e d0 3c b1 87 86 bd d0 dd 75 bd
       -0.043815903 0.025435628 -0.0656885 -0.06002599
000020 16 00 71 3d 82 7b 98 3c 8d 9a 12 bc 04 75 c4 3c
       0.058837973 0.01861358 -0.008947981 0.023981579
000030 9a 3b d6 3d dc 92 40 be af 36 00 be 24 b1 17 be
       0.10460587 -0.18806022 -0.1252086 -0.14813668
000040 95 9c 9d 3d 99 3c 00 3d 3a bf 35 be b3 e7 62 3d
       0.07695881 0.03130779 -0.17748728 0.055396747
000050 45 fc f8 bd 54 de 45 3e 4a 01 72 be e0 e3 2f 3d
       -0.121574916 0.19323093 -0.23633304 0.042941928
000060 dc 76 02 be 00 e1 08 be ac 09 3e 3d 5e ae 5d bd
       -0.12740654 -0.1336708 0.046395943 -0.054121368
000070 8b 6d eb 3c 88 cf 8f 3d 5e e4 98 3d 82 b9 aa 3d
       0.028738758 0.07022005 0.074654326 0.08336164
000080 b1 81 66 bd 12 7f 66 bc 4c 8b a0 3d 4a a6 37 be
       -0.056276027 -0.014068382 0.07839069 -0.17934528
000090 d7 db 21 bc 6f 20 c5 bb 43 5f 72 bc cd d3 b1 b8
       -0.009879074 -0.0060158293 -0.01479322 -8.479469e-05
0000a0 02 11 17 3d 69 0f 1f bc 84 9e 47 3b 7f 58 91 3c
       0.036881454 -0.009708264 0.0030459473 0.017742394
0000b0 93 01 1c be ec 59 e0 bd 64 46 a6 3d 3e d5 cf 3d
       -0.15234976 -0.10954651 0.08118895 0.101480946
0000c0 e9 61 53 3d 9a ef 96 3d 71 60 81 3d 01 ee 31 3d
       0.051607046 0.07369919 0.06317223 0.04343987
0000d0 6c 8a b5 bd 93 06 d0 3d 0b c1 2a 3d eb c6 21 bd
       -0.088642925 0.10157504 0.041688006 -0.039496344
0000e0 bb 6b f0 bc bd 88 bf bd d6 0f 8e 3d 9c 6c e8 bd
       -0.029348245 -0.09352253 0.06936614 -0.113488406
0000f0 dd 64 cc bc fd ca 27 be 2b 97 e2 bc 88 ff 6f ba
       -0.02495044 -0.16386028 -0.027659973 -0.00091552036
000100 54 09 6b 3e 6c 49 07 3e 71 69 fd bd 79 78 72 be
       0.22952777 0.13211602 -0.12373627 -0.23678769
000110 6b 13 65 3d e8 8d 02 3d c8 22 5e bb 9a de 53 3d
       0.05592672 0.031873614 -0.0033895243 0.05172596
000120 53 03 d2 bd a1 28 91 bd a9 7b 89 3d 9b 86 51 3d
       -0.1025454 -0.070878275 0.067130394 0.05115376
000130 2a 29 73 3d a5 90 58 3d 97 a6 4a 3d 74 9f cf 3c
       0.05936543 0.05287232 0.04947528 0.025344588
000140 77 67 f8 bc 24 4c 44 bd 88 fb e3 bc 87 d6 22 3d
       -0.030322773 -0.047924176 -0.0278299 0.03975537
000150 e9 44 6b 3c 13 f0 0b 3c 2c 38 81 ba 14 5c 90 3c
       0.014359691 0.008541125 -0.000985866 0.017622031
000160 12 db 59 bd ff 9c 2d 3d 34 bb 7e bc e4 56 93 3d
       -0.053187437 0.04238605 -0.015547562 0.071943074
000170 83 80 4d 3d 9d 84 f6 3a e5 cf 67 bc 56 66 36 bc
       0.050171386 0.0018807832 -0.014148687 -0.011132797
000180 d0 28 69 bc 50 35 63 bd ab b8 e3 3c c2 1d 97 bc
       -0.014230922 -0.055470765 0.027798017 -0.018446807

tcn.network.0.downsample.bias f4 [25]
000000 3e 55 e2 be 32 66 9b 3e 92 a0 15 be f0 a1 a0 3e
       -0.4420566 0.30351406 -0.14612034 0.31373549
000010 fd 94 07 3e 00 26 88 3e 25 9d a5 3e f5 9b 7f be
       0.13240428 0.26591492 0.32346454 -0.24961837
000020 5a 85 0f 3e 0d fd af be 11 28 ad bd d7 30 dc 3d
       0.14015713 -0.3437275 -0.08454908 0.10751503
000030 c6 be 3b be 16 5e 74 3d c5 16 a7 3e 21 2c 6a 3e
       -0.18334493 0.05966004 0.3263456 0.22868396
000040 5a 25 33 3e 7f dc c2 bd 5a 7b de 3e 43 12 95 be
       0.17494717 -0.095147125 0.43453485 -0.29115495
000050 32 fd cd 3e 89 55 da be 71 30 d5 bc 30 b1 9c bb
       0.40232235 -0.42643383 -0.026024075 -0.0047818646
000060 86 74 43 3d
       0.047718547

tcn.network.1.conv1.bias f4 [25]
000000 2e 3a f2 bc ca 09 c3 3d e1 3e 8a bc cd e7 30 bd
       -0.029568758 0.095233515 -0.016875686 -0.043189812
000010 a9 36 84 3c c0 26 07 3d 0a 33 8f bd 54 d4 a1 3c
       0.016139345 0.03299594 -0.06992157 0.019754566
000020 6a ef 05 3d 64 4c cb 38 c8 df 9b bd 58 ee 7c 3d
       0.032699026 9.694023e-05 -0.07611042 0.06175074
000030 eb 5f a6 bd 6a 7a 87 bd 08 ba ce bc 1c 11 7b bd
       -0.08123764 -0.066151455 -0.025235191 -0.061295614
000040 f0 4b 3c bd e9 dc ea 3b 97 da 1b bd bd 4b 4e 3d
       -0.045970857 0.007167448 -0.03805026 0.0503652
000050 5d 86 76 3d 6b be af bd a0 9c a0 3d 44 4b 85 3d
       0.060186733 -0.08581241 0.07842374 0.065084964
000060 a3 08 ab bd
       -0.08351257

tcn.network.1.conv1.weight_g f4 [25, 1, 1]
000000 22 d3 0a 3f df ae be 3f 96 30 ad 3f a3 ed 74 3f
       0.54228413 1.4897116 1.3530452 0.95675105
000010 2f 9a 6a 3f 91 b5 17 3f 46 c5 5b 3f 59 1b 4a 3f
       0.91641515 0.59261423 0.8584789 0.7894798
000020 9b 09 ff 3f 64 ea be 3f c3 ce 36 3f 00 67 cd 3f
       1.9924806 1.491528 0.71409243 1.6047058
000030 4a bc 09 3f ee a9 a0 3f a7 a4 f8 3f d6 a3 52 3f
       0.5380293 1.2551858 1.9425248 0.82281244
000040 28 b9 42 3f 73 04 5f 3f 3c a5 a9 3f 3d c8 a0 3f
       0.76063776 0.87116164 1.325355 1.2561108
000050 bb 23 71 3f bd 84 3a 3f 02 c1 a1 3f 09 7f 93 3f
       0.94195145 0.7285879 1.2637026 1.1523143
000060 9d 05 a6 3f
       1.2970463

tcn.network.1.conv1.weight_v f4 [25, 25, 6]
000000 42 eb 2a bd 26 24 9d 3d 4b 19 88 bd 01 36 4f bd
       -0.041728266 0.076729104 -0.06645449 -0.05058861
000010 ef 53 0d bd 2b 6f 37 bd 25 d7 1a bd ad a0 8a 3d
       -0.034503873 -0.044783752 -0.037802834 0.06768928
000020 a5 58 ef bc d4 ab d8 bc a7 12 5c bd 28 91 7d 3c
       -0.029217074 -0.026449122 -0.053728726 0.0154765025
000030 5a 8b 52 bd ed 7e 0d 3d 31 d4 57 bc 66 ef 0b 3d
       -0.051402427 0.034544874 -0.013173149 0.034163855
000040 91 48 d7 3c 4a e2 10 bd 20 01 82 3d d0 47 0e bd
       0.02627972 -0.035372056 0.06347871 -0.034736454
000050 b2 3d 2c bd 39 1c 06 3c 09 37 e2 3c 8f 5a 9e bd
       -0.042051025 0.00818544 0.027614133 -0.077321164
000060 7b e5 32 3c d1 7c 23 3d 9d 5d 85 bb 61 27 37 bd
       0.01091897 0.039913956 -0.0040699975 -0.04471529
000070 04 8e 7e 3c f4 97 5b bd 66 b1 8e bd 96 0a 03 bd
       0.015536789 -0.05361171 -0.0696743 -0.031992517
000080 05 c0 68 39 72 c7 4a 3d fc 6c 7c 3d 4e ab db ba
       0.00022196777 0.049506612 0.061627373 -0.0016759427
000090 f8 7c 6a bd 85 06 93 bc 31 26 42 3d ab 10 81 3c
       -0.057248086 -0.017947445 0.047399703 0.015755018
0000a0 04 2b ba bb 37 eb b9 3b bb 15 2c bc 81 c6 92 bb
       -0.0056813974 0.0056737917 -0.010503228 -0.00447923
0000b0 ce 5a 9b 3c 6f f2 43 bd 21 93 6d bd dd 74 9a bd
       0.018964197 -0.047838625 -0.05800164 -0.07541821
0000c0 57 1d 85 bd ca d2 21 bc b4 6a 99 bd bd ad 8a 3d
       -0.06499737 -0.009876916 -0.07491055 0.06771419
0000d0 f2 84 d7 bc 12 3f fb bc db 1b ba bb a7 f4 75 3d
       -0.02630851 -0.030669723 -0.00567959 0.06004777
0000e0 2c 1f 95 3d 91 81 9c 3d 20 b4 22 bd f1 75 8e 3d
       0.07281336 0.076419 -0.03972256 0.06956089
0000f0 ef bb c5 3b 4f e6 88 3d fc 66 f7 bc a2 b2 c0 3c
       0.0060343663 0.06684553 -0.030200474 0.023522679
000100 c1 ef 23 bd 68 14 90 bb 81 fc 77 3d 4e 20 83 3c
       -0.04002357 -0.004396964 0.06054354 0.016006615
000110 21 9c 3b bd 64 49 c8 3b 97 0c da 38 d8 41 0f 3d
       -0.045803193 0.0061122645 0.00010397395 0.034974903
000120 60 09 3b bd 5a ff 4f 3d 1e 23 6f 3c eb c2 1b 3d
       -0.045663238 0.05078063 0.014595775 0.038027685
000130 1a 46 75 bd f4 a1 bc 3c d5 da 1b bb 80 72 54 3d
       -0.059881307 0.023026444 -0.0023781557 0.05186701
000140 3d 58 20 bd 4e 39 d4 39 2d ea cc 3c 35 12 0d bd
       -0.03914665 0.00040478486 0.025014007 -0.03444119
000150 39 0a 29 3d 67 0b d7 bc d3 ad 8b 3d 4b e8 2a bd
       0.041269515 -0.026250554 0.06820264 -0.041725438
000160 de 80 63 3d 45 98 90 bd aa 00 52 3d b2 0c 82 bd
       0.05554282 -0.07060293 0.051270165 -0.06350078
000170 d2 7f 30 bd 8b 45 4a bd ef 63 60 bd 7c fa 5f bd
       -0.04309065 -0.049382728 -0.054782804 -0.05468224
000180 b1 5b 6e 3b e4 37 b8 bc fb 9f 9a 3c 8b 02 17 3d
       0.003637057 -0.022487588 0.018875113 0.03686766
000190 9a 1b 84 bd a0 60 99 bd 73 9f 85 bd 6f dd 36 3c
       -0.06450577 -0.07489133 -0.06524553 0.011161192
0001a0 be e0 80 bd 11 ab 73 bd a3 07 6d bd 4a a8 fd bc
       -0.06292866 -0.059489314 -0.05786861 -0.030964036
0001b0 16 86 2c bd 32 7b 67 bd d6 8a a2 bd c8 2e fd bb
       -0.04212006 -0.056513973 -0.07936637 -0.007726524
0001c0 b4 4c aa bc cb 1a 2a 3d 94 46 ff 3c 08 57 90 bd
       -0.020788528 0.041529458 0.031161584 -0.0704785
0001d0 2c cf 65 bc 7e fe 03 bd 3b 55 63 bd 91 15 8b bd
       -0.014026444 -0.032225125 -0.055501204 -0.06791223
0001e0 46 ed 18 3d 04 9c 71 3d 46 51 21 bd 77 e5 3e bd
       0.037335657 0.05898668 -0.03938415 -0.046605553
0001f0 e2 63 94 bd ec 5c 56 bd ee 9f 1a bc 2e 55 2b bd
       -0.07245614 -0.05233471 -0.009437544 -0.04182928
000200 08 2b 84 3d ad 05 31 bd 6d d9 85 bd 9b 89 bd 3c
       0.0645352 -0.043218303 -0.06535611 0.023136904
000210 90 d3 91 3a fb 33 86 bd de 82 0f bd 04 af 14 3d
       0.0011125673 -0.06552883 -0.035036914 0.03629972
000220 35 ad e7 bc b0 a3 c0 bc 2d 44 bc ba c0 6a 99 bc
       -0.028280834 -0.023515552 -0.001436358 -0.01872766
000230 00 42 80 bd 6f 5c 10 3d 28 a3 14 3d 18 63 2e bd
       -0.062625885 0.0352444 0.03628841 -0.042574972
000240 98 20 8f 3c fa 92 89 bd 10 a8 c5 bc 0c d3 2b bd
       0.017471597 -0.06717487 -0.02412799 -0.041949317
000250 e1 b7 22 bd 99 75 32 bd a1 67 5e 15 6c ac 00 80
       -0.03972614 -0.04356918 4.4914292e-26 -6.1853e-41
000260 48 26 00 00 87 14 00 80 ce 72 84 85 fd 1b cd b5
       1.3733e-41 -7.364e-42 -1.2455393e-35 -1.5281836e-06
000270 aa 66 78 bb bd 03 65 bd f8 dd 85 bc 1d 5a 49 bc
       -0.003790299 -0.05591177 -0.016341195 -0.012289551
000280 c6 3f b4 3c 01 3e 7c bc b7 59 5e bd 1c 80 fe bb
       0.022003066 -0.015395642 -0.054284777 -0.0077667367
000290 e0 35 0d 3b 08 27 99 bc c7 60 c7 bc f7 b4 39 3c
       0.0021547005 -0.01869537 -0.02433814 0.011334649
0002a0 60 de d4 bc 61 c6 50 3d 98 f1 65 bd 4f bb da bc
       -0.025984943 0.05097044 -0.056138605 -0.026700644
0002b0 7b 97 c5 bc 55 a4 49 3a 03 f7 35 3d fb dd 5a 3d
       -0.024120083 0.0007692029 0.04442502 0.053434353
0002c0 00 d7 57 3d 34 8f a8 bc a3 7e 08 bd c7 d9 0a bc
       0.052695274 -0.020576097 -0.033323895 -0.008474774
0002d0 63 e0 8a bd 30 40 97 bd f5 f2 61 3d a7 4e 8e bd
       -0.067810796 -0.0738529 0.055163343 -0.069485955
0002e0 8d 1c 0a 3d a3 8f f9 3c 1d fa 92 bd 34 07 83 bc
       0.033718634 0.030464 -0.071766116 -0.015994646
0002f0 bc 80 99 bd 03 26 57 bd fe 0b 92 3d 55 ee 95 bd
       -0.07495257 -0.052526485 0.071311936 -0.07320849
000300 db 8d d0 3c 93 9c 29 3d 17 04 d0 3c f4 78 ae 3d
       0.025458267 0.041409086 0.025392575 0.08519164
000310 64 4d 1b bd c7 12 8d 3d c0 20 0c 3d c4 e7 50 3d
       -0.037915602 0.06888347 0.03421092 0.05100228
000320 0e a5 55 be 75 39 fa bd a2 6b 26 bd 15 0a d6 bd
       -0.20863745 -0.1221799 -0.04062999 -0.10451142
000330 bb 16 00 80 43 28 01 00 86 77 00 00 29 94 58 ba
       -8.154e-42 1.06279e-40 4.2877e-41 -0.00082618237
000340 0c 3a 28 bb 1c 6f 00 00 78 77 0b 3c bc 37 8a bc
       -0.0025669364 3.9859e-41 0.00851237 -0.01687228
000350 68 5c 83 bc f8 20 ea bd f5 af b9 3d 3f 9d d2 3c
       -0.016035274 -0.114320695 0.09066764 0.025709746
000360 c9 1d 80 bd 8f 9b ab 3d 82 fc f2 3b 08 d1 ab 3c
       -0.06255681 0.0837928 0.007415355 0.020973697
000370 98 1f f9 bd 31 ae 00 3d a8 34 82 bd c1 45 95 3d
       -0.12164229 0.031416122 -0.063577 0.07288695
000380 63 05 61 bd ac b9 c0 bd 9c 36 1f bc 86 63 22 bd
       -0.054936778 -0.09410414 -0.00971761 -0.039645694
000390 01 a7 fd 3d 31 85 30 bc e5 8e a7 3c 1d 52 84 3d
       0.12385369 -0.010773943 0.02045388 0.06460974
0003a0 0e 4a 8a 3d e7 e7 39 bc 3f 7c b6 ba 8e f0 01 3c
       0.06752406 -0.011346794 -0.0013922526 0.007930888
0003b0 cb 32 46 3d 21 f2 d8 3c 7b 65 84 3c 55 c5 12 3d
       0.048388284 0.026482644 0.01616167 0.03583272
0003c0 9f 92 38 bd 8f a1 4f 3d 28 e0 ca 3c e0 f9 23 3b
       -0.045061704 0.050691184 0.02476509 0.0025020763
0003d0 f9 74 b9 bd 9d 5c 98 3c db 4c 8f bd 51 3f e3 bc
       -0.09055514 0.018598849 -0.06997081 -0.027740153
0003e0 ba 4a d9 3c 8f f1 8e 3d 4b d2 98 bc 38 ab 20 3d
       0.02652489 0.069796674 -0.018654963 0.039225787
0003f0 9b 7e ad bd 7d b0 90 3c ad ba 63 bc 76 f6 7d 3d
       -0.08471414 0.017662281 -0.013899487 0.06200262

tcn.network.1.conv2.bias f4 [25]
000000 f5 c2 b3 3c 2a d5 d1 bc f7 af e9 3c 93 ba 6c 3d
       0.021943549 -0.02561434 0.02852629 0.05779512
000010 1d a2 16 3d f0 62 bc ba 11 d1 1a 3d 84 c2 3a bd
       0.036775697 -0.0014372747 0.037797038 -0.04559566
000020 6f 95 f6 3b f2 9b 21 bb 96 05 74 bd f4 e9 4b bc
       0.007525138 -0.00246596 -0.05957564 -0.0124459155
000030 04 cc 25 3d 58 c3 ba bd 80 ad 3c 3c 4b d0 9f 3d
       0.040477768 -0.0911929 0.011515975 0.078034006
000040 ef d8 80 3d 02 27 d2 bc 15 a9 07 3d d9 d4 9c bc
       0.06291377 -0.025653366 0.033120234 -0.019144462
000050 43 16 0b bb 5d c6 19 bd 25 0b 81 bc f1 d9 1e 3c
       -0.0021222986 -0.03754269 -0.015752384 0.009695516
000060 32 13 50 3d
       0.050799556

tcn.network.1.conv2.weight_g f4 [25, 1, 1]
000000 e4 fc 8a 3f 60 90 63 3f e3 93 8c 3f a9 f7 c5 3f
       1.0858426 0.88892174 1.0982631 1.5466205
000010 7d 46 95 3f bc d9 8a 3f 71 00 80 3f 13 c4 51 3f
       1.1662136 1.0847697 1.0000135 0.8193981
000020 61 e6 70 3f ee 8d 92 3f 28 56 8c 3f 30 42 a3 3f
       0.9410153 1.1449564 1.0963793 1.2754574
000030 00 39 bd 3f 0a b0 90 3f 1f 5f 75 3f cc 6e 88 3f
       1.478302 1.1303723 0.9584827 1.0658813
000040 8b 21 b4 3f 4f 6c ae 3f 8a fa 65 3f 70 ad 85 3f
       1.4072737 1.3626803 0.8983542 1.0443554
000050 b4 f8 7e 3f 50 5a 93 3f c5 f3 96 3f c6 a8 a6 3f
       0.9959824 1.1511936 1.1793143 1.3020256
000060 a5 b1 92 3f
       1.1460463
